cnn_model.pt (torch, 60632 bytes, 8 tensors)

conv1.weight f4 [16, 5, 3]
0.012817249 -0.11152229 0.1618677 -0.11492031 -0.090554364 0.053934816 0.13338386 0.12596138
0.1179206 -0.03690941 -0.02158131 0.03009225 -0.1111745 0.06991563 0.392705 -0.010968536
0.11062218 0.27381647 0.22108784 0.08487633 -0.09027986 0.2591596 0.41627917 0.37715217
0.3200142 0.0774649 0.1834723 -0.31898373 -1.524219 -0.51269114 -0.33611608 0.11982104
0.0529095 0.10598776 0.007683883 -0.115402855 0.012167746 0.11244895 0.1801974 0.1677676
-0.32404295 0.013363014 -1.1880164 0.80672175 -0.4279959 0.23566128 0.1714614 -0.05979842
0.14713015 -0.1535999 -0.22972822 0.10300493 -0.10205883 0.08567956 -0.2040821 0.114165954
-0.17586151 0.036029775 -0.32373518 -1.6073056 0.088480495 -0.3119717 0.103851296 0.014012694
0.12972316 0.07701926 0.09820808 -0.02522404 -0.07951029 -0.3183787 0.16690841 0.076215096
0.978841 -0.60223585 -1.3315233 0.18725127 0.13722852 0.42443547 0.1111767 -0.1608551
0.51268226 -0.07200107 -0.09609347 0.4927101 0.07086113 0.0641748 0.61316013 -0.29954538
0.95112276 -0.71409947 -0.28497577 -0.21210818 -0.22091648 0.12462898 -0.33077282 -0.09968847
-0.20249972 -0.077926144 -0.17004454 -0.2258469 -0.11087004 0.02810234 -0.6030474 -0.45361197
0.9274017 0.08993676 0.043682486 -0.12393735 0.036299527 -0.09720551 -0.07826279 -0.13820474
-0.22717111 -0.02451001 -0.12011106 -0.18769795 0.13765493 -1.0747291 -0.47451964 1.0916888
0.1785982 -0.10327392 -0.18123353 -0.23154913 0.1320469 0.008925257 0.20568494 -0.10473016
-0.10434501 -0.1711321 -0.081285946 -0.073953874 0.54263407 -0.8748432 0.55654967 -0.16296765
-0.029196935 -0.1935318 -0.119349055 0.13361086 -0.17336182 0.303621 -0.093853 0.20603186
-0.22912262 -0.26224425 0.048571162 0.36711457 0.38554153 -0.52943826 -0.23803943 -0.38828036
0.07370546 -0.1620473 -0.2627894 -0.19891681 -0.004855057 -0.23632537 -0.3608392 -0.25393686
-0.37628296 -0.3871799 -0.49050936 -0.2388959 -1.2729357 0.27540368 -0.0743721 0.18371777
0.09235625 -0.046692044 -0.12206619 0.06803211 -0.049308687 -0.22572108 0.048568033 0.045143444
-0.030687464 1.1662841 -0.24212785 -0.34309286 -0.17785212 0.09371373 -0.09485858 -0.114511915
-0.13203536 0.17134432 -0.22367659 0.1122154 0.14782245 -0.23761338 -0.07635411 0.12580055
0.7548586 -0.75712836 -0.27067423 0.15582517 0.01529426 0.21394663 -0.020560754 -0.08254581
0.12096607 0.20701578 -0.11278301 -0.23109615 -0.009261018 0.082437 -0.07214957 0.62091327
-0.2667155 0.91874343 -0.22045614 0.1324442 0.11548585 -0.20744647 0.2121124 0.31627724
-0.2232506 0.2941651 0.35471094 -0.27157053 -0.007910226 0.42939067 0.15663491 0.1416002
0.063433744 -0.444039 -0.29302886 0.060720913 -0.17992327 -0.031619977 0.2161528 -0.05252947
0.06323181 0.40846854 -0.11909933 0.15256499 0.17821875 -0.36085498 0.50614965 0.086019486
00000000: 70ff 513c cc65 e4bd a5c0 253e 575b ebbd
00000010: 9174 b9bd c1ea 5c3d c795 083e 05fc 003e
00000020: 5b80 f13d 522e 17bd 4acb b0bc 0684 f63c
00000030: 75af e3bd ed2f 8f3d a110 c93e 60b5 33bc
00000040: e28d e23d ac31 8c3e da64 623e a4d3 ad3d
00000050: a6e4 b8bd 91b0 843e 8b22 d53e 171a c13e
00000060: e7d8 a33e eba5 9e3d 2ae0 3b3e d651 a3be
00000070: 9c19 c3bf ba3f 03bf 6817 acbe bc64 f53d
00000080: a2b7 583d 1c10 d93d 15c9 fb3b 5558 ecbd
00000090: 3a5b 473c a34b e63d ab85 383e 45cb 2b3e
000000a0: f5e8 a5be 8bf0 5a3c ec10 98bf 5185 4e3f
000000b0: 4722 dbbe 3151 713e 9493 2f3e 30ef 74bd
000000c0: 49a9 163e 4b49 1dbe e03d 6bbe 40f4 d23d
000000d0: 3804 d1bd c478 af3d e6fa 50be d7cf e93d
000000e0: 0a15 34be f593 133d 9ec0 a5be 31bc cdbf
000000f0: 4335 b53d c1ba 9fbe fdaf d43d 8095 653c
00000100: 26d6 043e 46bc 9d3d 5121 c93d a5a2 cebc
00000110: 4ad6 a2bd 8802 a3be 0aea 2a3e a916 9c3d
00000120: 5395 7a3f 212c 1abf 5b6f aabf ccbe 3f3e
00000130: a285 0c3e 9b4f d93e 9cb0 e33d 33b7 24be
00000140: 253f 033f 4c75 93bd a7cc c4bd 8044 fc3e
00000150: a41f 913d 146e 833d 10f8 1c3f 035e 99be
00000160: c87c 733f 39cf 36bf 58e8 91be e332 59be
00000170: ee37 62be 7b3d ff3d 0e5b a9be 7829 ccbd
00000180: 165c 4fbe be97 9fbd 2820 2ebe 6944 67be
00000190: d50f e3bd e136 e63c 5061 1abf d43f e8be
000001a0: 336a 6d3f c430 b83d 68ec 323d ded2 fdbd
000001b0: d0ae 143d af13 c7bd 3e48 a0bd 8b85 0dbe
000001c0: 8b9f 68be 37c9 c8bc cafc f5bd e433 40be
000001d0: 6af5 0c3e b990 89bf 3df4 f2be 75bc 8b3f
000001e0: 72e2 363e 4781 d3bd 4895 39be 371b 6dbe
000001f0: 4d37 073e 3e3b 123c 139f 523e c47c d6bd
00000200: d6b2 d5bd 413d 2fbe 3f79 a6bd 2175 97bd
00000210: 11ea 0a3f b9f5 5fbf 0a7a 0e3f fee0 26be
00000220: 692e efbc 332d 46be 476d f4bd 49d1 083e
00000230: c385 31be 3674 9b3e 0036 c0bd 04fa 523e
00000240: 1f9f 6abe e144 86be 8ef2 463d 71f6 bb3e
00000250: b365 c53e 4489 07bf 9cc0 73be afcc c6be
00000260: e3f2 963d baef 25be 558c 86be d9b0 4bbe
00000270: 2c17 9fbb 47ff 71be eabf b8be 0304 82be
00000280: 29a8 c0be 723c c6be 0b24 fbbe 20a1 74be
00000290: 8fef a2bf b601 8d3e 6650 98bd 8320 3c3e
000002a0: 4625 bd3d 2840 3fbd d7fd f9bd 6b54 8b3d
000002b0: e8f7 49bd 6d23 67be 46ef 463d 55e8 383d
000002c0: 4764 fbbc cc48 953f 5df0 77be dea9 afbe
000002d0: de1e 36be fcec bf3d 3745 c2bd 3985 eabd
000002e0: 4734 07be e374 2f3e 7a0b 65be 30d1 e53d
000002f0: c55e 173e ec50 73be 8b5f 9cbd dcd1 003e
00000300: 6a3e 413f 2ad3 41bf d095 8abe a290 1f3e
00000310: c794 7a3c d314 5b3e 076f a8bc c70d a9bd
00000320: 0fbd f73d f2fb 533e c7fa e6bd 78a4 6cbe
00000330: 86bb 17bc bbd4 a83d 27c3 93bd 2cf4 1e3f
00000340: ef8e 88be c532 6b3f 41bf 61be 749f 073e
00000350: d883 ec3d d96c 54be fe33 593e 17ef a13e
00000360: ce9b 64be cf9c 963e ac9c b53e 4b0b 8bbe
00000370: e499 01bc 18d9 db3e e764 203e a5ff 103e
00000380: 8de9 813d 1459 e3be e107 96be 7eb6 783d
00000390: ce3d 38be f383 01bd 2957 5d3e 2429 57bd
000003a0: ae7f 813d ca22 d13e 59ea f3bd ff39 1c3e
000003b0: fa7e 363e fcc1 b8be 0693 013f fc2a b03d

conv1.bias f4 [16]
0.10759507 -0.020328801 0.22424139 0.46184528 0.35252446 -0.18682328 -0.20445904 -0.690824
-0.27819198 -0.0627303 -0.65985435 -0.716123 0.08570903 -1.2669482 0.5224845 0.039023325
00000000: ce5a dc3d 9688 a6bc 899f 653e fc76 ec3e
00000010: 167e b43e 9a4e 3fbe b65d 51be d7d9 30bf
00000020: 2e6f 8ebe be78 80bd 37ec 28bf d653 37bf
00000030: 3788 af3d 5c2b a2bf 8bc1 053f ecd6 1f3d

conv2.weight f4 [32, 16, 3]
-0.053274505 -0.044546463 -0.15073544 0.038379263 0.12020424 -0.07156661 -0.045995772 0.14382653
-0.08859509 -0.2133143 -0.11679243 0.022203688 0.01894349 -0.09796533 -0.03432928 -0.15108342
-0.07722592 -0.1162672 0.064541556 -0.026516197 0.018368714 -0.12826362 -0.011798982 0.041049313
-0.09614946 0.02574913 -0.07098108 -0.004859329 -0.16163225 0.017384099 -0.027728835 -0.10539059
-0.03449933 -0.10128563 -0.046227165 -0.1321676 -0.07529384 -0.052220393 0.11402814 -0.1399743
0.04081877 0.0096698 0.003217371 0.027037088 -0.10731234 -0.060778517 0.02223122 -0.09639023
0.11289003 0.17685182 -0.096475735 0.032288406 0.09632276 0.88810337 -0.10204795 -0.08411527
-0.18730785 0.044258736 0.05881027 -0.044241276 -0.50215524 -0.43854305 0.30636382 0.0013305122
-0.39319953 -1.3293519 0.20406139 0.11668399 -0.46321258 -0.09749372 -0.5298946 0.2346166
0.5123824 -0.62437606 -0.36128652 -0.3153663 0.100089364 0.07991101 -0.29866236 0.23782499
0.38187492 0.10960986 0.20122735 0.24208705 -0.14662783 0.0048426474 0.32808882 0.580019
-0.27878812 -0.09335941 -0.012152688 -0.6958577 -0.5991893 -0.5608891 0.3127693 -0.35749882
0.03898289 -0.092263214 -0.018310383 -0.12828422 -0.097454086 0.061850727 -0.0962148 -0.12592986
-0.13373141 0.13268337 -0.097993955 0.08001618 -0.07011176 -0.09277227 -0.115720704 -0.14713821
0.0077216476 0.02487719 -0.052049138 -0.12297666 -0.09632318 -0.11444326 0.07470375 0.08527079
-0.005183175 0.1071803 0.053144023 -0.068986535 -0.12137357 -0.03134866 -0.0071087927 -0.05821293
-0.028515719 -0.017966017 -0.11104731 0.06665328 0.019634608 4.939735e-05 -0.05337584 -0.1225667
0.0005758701 -0.1198321 0.025770605 0.08092521 -0.14903513 -0.03308409 -0.040547274 0.08054608
-0.26459378 -0.36064938 -0.11844022 0.27041054 -0.0029678955 0.11708372 -0.20374417 -0.15437369
0.23439854 0.014241919 0.32349306 -0.061258722 -0.46231458 0.039046332 0.06477093 -0.40043563
-0.010145 -0.25965902 -0.2906725 0.16347718 -0.026784042 0.77164733 0.29642668 -0.18900053
-0.38514948 0.21614589 0.30496952 -0.1540756 0.0013010158 0.031069212 0.06078303 0.17473447
0.012689469 -0.51971 -0.6765708 -0.13051945 -0.3321546 0.37561667 -0.015110345 -1.7031856
-0.28468886 -0.40150687 0.12839736 -0.17938817 0.068281315 -0.48569167 -0.022744283 0.30749226
0.14080195 0.03552343 0.05063474 -0.28278562 -0.42867714 0.12771109 0.40691236 -0.093446136
0.20051867 0.08614939 0.24975117 -0.40068877 0.2567951 0.12544972 -0.26935506 0.24789318
-0.23951466 0.18848129 0.2542956 -0.12201805 -0.23285261 -0.07609593 -0.13585255 0.10912274
-0.3216722 0.42165843 -0.18193974 -0.36114264 -0.07785765 0.25540078 0.46711764 -0.1752352
-0.48040733 0.063512474 -0.6232912 0.30263916 -0.03996229 -0.026986884 0.07952811 -0.18973039
0.12435868 -0.013754552 -0.16208322 0.03638218 0.003624451 0.23949125 -0.23744819 0.22623426
0.084035404 0.061606396 0.079015076 -0.070306644 0.024528481 0.1252343 0.05947358 -0.21947525
-0.63598967 0.091504864 -0.046072047 0.030087046 0.37358552 0.20328033 -0.24540474 -0.26392776
00000000: 5e36 5abd 5a76 36bd 645a 1abe 9333 1d3d
00000010: a42d f63d 8491 92bd 1066 3cbd 4347 133e
00000020: 5871 b5bd 106f 5abe df30 efbd 82e4 b53c
00000030: 612f 9b3c 0ca2 c8bd dc9c 0cbd 9db5 1abe
00000040: a028 9ebd 7f1d eebd 5d2e 843d 7f38 d9bc
00000050: fc79 963c 8a57 03be 8450 41bc 5323 283d
00000060: 02ea c4bd d7ef d23c 875e 91bd 023b 9fbb
00000070: ed82 25be 1969 8e3c 9527 e3bc 06d7 d7bd
00000080: 2b4f 0dbd d76e cfbd b258 3dbd f156 07be
00000090: a833 9abd 0de5 55bd 9687 e93d 6c55 0fbe
000000a0: 9531 273d 156e 1e3c 87da 523b e27c dd3c
000000b0: 92c6 dbbd e5f2 78bd 3f1e b63c 3e68 c5bd
000000c0: e332 e73d a518 353e 1295 c5bd d940 043d
000000d0: de44 c53d be5a 633f 84fe d0bd a044 acbd
000000e0: a1cd 3fbe a648 353d 0ae3 703d 5736 35bd
000000f0: 3f8d 00bf b788 e0be b8db 9c3e 9564 ae3a
00000100: 7351 c9be 3428 aabf 78f5 503e 04f8 ee3d
00000110: 332a edbe caaa c7bd 2ca7 07bf 563f 703e
00000120: 7e2b 033f 1cd7 1fbf 8cfa b8be b177 a1be
00000130: a7fb cc3d 62a8 a33d 46ea 98be 6588 733e
00000140: 1c85 c33e 227b e03d 8b0e 4e3e abe5 773e
00000150: 9b25 16be 12af 9e3b 42fb a73e 207c 143f
00000160: 51bd 8ebe 3833 bfbd 111c 47bc bb23 32bf
00000170: 7864 19bf 6e96 0fbf 4c23 a03e 160a b7be
00000180: 86ac 1f3d 7ff4 bcbd a8ff 95bc f05c 03be
00000190: 0296 c7bd 3057 7d3d 440c c5bd c2f3 00be
000001a0: e3f0 08be 26de 073e 0eb1 c8bd 86df a33d
000001b0: c196 8fbd 63ff bdbd fafe ecbd 66ab 16be
000001c0: e005 fd3b 40cb cb3c 7a31 55bd 30db fbbd
000001d0: 1645 c5bd 3a61 eabd 48fe 983d 74a2 ae3d
000001e0: a0d7 a9bb 5881 db3d 8cad 593d d048 8dbd
000001f0: b592 f8bd 7467 00bd e0f0 e8bb ae70 6ebd
00000200: cc99 e9bc 782d 93bc c66c e3bd 8481 883d
00000210: c2d8 a03c 0030 4f38 a0a0 5abd 4004 fbbd
00000220: fdf5 163a 886a f5bd e01c d33c 1ebc a53d
00000230: aa9c 18be 2f83 07bd e614 26bd 58f5 a43d
00000240: d678 87be 09a7 b8be c990 f2bd 4073 8a3e
00000250: 0681 42bb 97c9 ef3d 50a2 50be 2314 1ebe
00000260: 2c06 703e f056 693c e2a0 a53e 6dea 7abd
00000270: 7fb4 ecbe 0cef 1f3d 9fa6 843d e605 cdbe
00000280: 3737 26bc 07f2 84be 07d3 94be 9066 273e
00000290: 356a dbbc ae8a 453f 3dc5 973e 5b89 41be
000002a0: 5032 c5be 5955 5d3e f724 9c3e fec5 1dbe
000002b0: d986 aa3a dc84 fe3c a0f7 783d 98ed 323e
000002c0: 7ee7 4f3c b70b 05bf be33 2dbf e4a6 05be
000002d0: 2b10 aabe d450 c03e 6191 77bc fc01 dabf
000002e0: bdc2 91be 4f92 cdbe 997a 033e 88b1 37be
000002f0: 13d7 8b3d 94ac f8be 3852 babc a06f 9d3e
00000300: 632e 103e 0481 113d 6066 4f3d 47c9 90be
00000310: 927b dbbe b2c6 023e d156 d03e b060 bfbd
00000320: c454 4d3e 176f b03d c5be 7f3e 1427 cdbe
00000330: a67a 833e e475 003e e8e8 89be b6d7 7d3e
00000340: 5543 75be 3d01 413e 0833 823e 99e4 f9bd
00000350: ea70 6ebe 2fd8 9bbd ee1c 0bbe be7b df3d
00000360: 38b2 a4be 9de3 d73e 694e 3abe b0e7 b8be
00000370: d573 9fbd e4c3 823e 0b2a ef3e db70 33be
00000380: f3f7 f5be d412 823d 0390 1fbf 85f3 9a3e
00000390: 80af 23bd 9913 ddbc a2df a23d af48 42be
000003a0: c3af fe3d c65a 61bc 25f9 25be 7b05 153d
000003b0: 3388 6d3b 323d 753e 9e25 73be f4a9 673e
000003c0: c11a ac3d fd56 7c3d a8d2 a13d eefc 8fbd
000003d0: f4ef c83c 6c3d 003e 929a 733d 1fbe 60be
000003e0: 38d0 22bf e766 bb3d 0bb6 3cbd 1c79 f63c
000003f0: 9a46 bf3e b828 503e 614b 7bbe 8a21 87be

conv2.bias f4 [32]
-0.13256165 -0.6885852 -0.12131986 0.1350336 0.33637083 0.6756821 0.6807932 -0.4439986
0.96766984 0.11570504 0.18538816 -0.32753715 0.46155867 -0.9489162 -0.0033509217 0.69374067
-1.5342387 -0.42191184 0.48288196 -0.2302145 0.4172163 -1.0057896 0.34223303 0.10180574
0.44264248 0.5347189 0.50100666 0.53293514 0.1583323 0.5256227 0.46676317 0.00044922472
00000000: 3ebe 07be 1f47 30bf 8c76 f8bd 3f46 0a3e
00000010: cc38 ac3e 81f9 2c3f 7748 2e3f c953 e3be
00000020: 36b9 773f c4f6 ec3d 65d6 3d3e f3b2 a7be
00000030: 6b51 ec3e 2cec 72bf 239b 5bbb fd98 313f
00000040: ef61 c4bf d404 d8be 4e3c f73e 5abd 6bbe
00000050: 609d d53e b7bd 80bf 2b39 af3e 877f d03d
00000060: 09a2 e23e 56e3 083f f941 003f 706e 083f
00000070: dd21 223e 368f 063f 95fb ee3e ec85 eb39

fc1.weight f4 [64, 192]
-0.025786504 0.04686311 0.028109154 0.05313657 -0.056631956 0.04459101 -0.04363268 0.56178534
-0.53159714 -0.07890058 0.034186155 -0.12623598 -0.012863513 0.060274526 0.027672514 -0.0152452625
-0.05510337 0.06331845 0.0018508683 0.09355038 0.29708132 -0.5993841 -0.2670754 -0.34226865
-0.27379078 -0.34503588 -0.16891973 0.06980861 0.07565319 0.38145557 -0.48082498 0.21154854
0.2800728 0.11985623 0.17745498 -0.33869416 0.05132599 -0.17340256 -0.018258628 -0.038948245
-0.4670008 -0.04419095 1.113927 0.17950082 -0.0104694255 0.027554534 0.26809216 -0.07795183
0.43820855 0.33638033 -0.20987472 -0.8384328 -0.070530936 -0.6375651 -0.6275565 0.71351403
-0.05122343 -0.014093852 0.24564266 -0.20330028 -0.17664881 -0.20501375 -0.26159182 -0.25211182
0.2513477 -0.37527078 -0.078562014 0.21994877 -0.5395257 0.11434924 -0.12956345 0.02592364
-0.22502369 -0.48508796 -0.12646165 -0.02349777 0.2903746 -0.013827053 -1.2442248 0.12231388
-0.1380329 0.43024772 -0.19180857 -0.6040812 -0.4737102 0.5142634 0.2297867 0.28617606
-0.2452047 -0.3385933 0.4821557 -0.40419003 -0.36263806 -0.29134324 -0.10446829 -0.6354265
-0.081273876 -1.0159733 0.25302052 0.15149406 0.47558913 0.32718197 -0.194015 -0.93174314
0.17835394 -0.24340943 -0.1955744 0.35614732 0.029456059 -0.047818672 -0.16440938 -0.11422716
-0.32330862 -0.42971396 0.12569314 0.32719353 0.16427909 -0.35059395 0.012378546 0.18960927
-0.97768426 0.07907634 -0.38507357 -0.01444601 0.47336018 0.06786488 -0.21671197 0.22946656
0.7224335 0.20307088 0.014575599 0.034246907 0.082350165 -0.257354 -0.14190057 -0.10204582
0.349637 0.071273535 -0.13413818 0.08497556 0.06386057 -0.16897751 -0.20996815 0.19465475
-0.3294024 -0.63945305 0.4423548 0.15926577 -0.047296602 -0.16087644 -0.27450162 -0.6147377
-0.022054203 -0.05510692 -0.044754624 -0.18166463 -0.2927342 0.1512513 -0.14440405 -0.4735637
-0.36062178 0.3513675 -0.17661767 0.004312248 0.14009541 0.042314433 -0.4254562 0.15904061
-0.016194874 -0.067465015 0.51032716 -0.101941206 -0.23151387 -0.1402821 -0.17450601 -0.08074482
0.3595185 0.26811177 0.18311389 -1.578436 -0.16473234 0.4092962 0.41154557 -0.51571494
-0.4771209 -0.29163152 -0.2782518 0.22697924 0.075260855 0.0724162 -0.5035679 0.23636855
0.077015355 -0.02655405 -0.050163418 -0.030782228 -0.062223967 0.011366512 0.27481154 -0.06520231
-0.46067205 -0.16800715 0.1069096 0.17015913 0.037654117 0.005418927 -0.07086304 0.06247489
0.013804586 -0.048902288 0.19572778 -0.26997775 0.23090184 0.07869217 0.05149634 -0.15296905
0.43931 -0.07071156 0.044001177 0.0697026 0.02245811 0.49517986 -0.102405846 0.021473318
0.12730186 0.1514096 0.17278205 -0.11068483 -0.45768407 -0.0059757046 0.12589343 0.39035323
0.23232949 0.1919761 0.25813544 -0.09388914 0.07740456 0.38996446 0.078207605 0.12656981
0.29919672 0.30374464 -0.02904123 0.100637555 0.15295006 0.10618519 -0.0008782869 -0.06622221
-0.4047023 0.33804405 -0.2603649 0.4510103 0.55228424 -0.2394983 -0.26510593 -0.09853566
00000000: 383e d3bc 88f3 3f3d 2b45 e63c bba5 593d
00000010: e9f6 67bd 10a5 363d 2eb8 32bd 2ad1 0f3f
00000020: c016 08bf a196 a1bd c806 0c3d 0144 01be
00000030: 7cc1 52bc 6ce2 763d 78b1 e23c 44c7 79bc
00000040: 12b4 61bd 1aad 813d d698 f23a 5797 bf3d
00000050: 0b1b 983e 3d71 19bf 1bbe 88be d63d afbe
00000060: 4e2e 8cbe 8ba8 b0be 4bf9 2cbe d1f7 8e3d
00000070: 0ff0 9a3d 254e c33e b12e f6be 2ea0 583e
00000080: b465 8f3e 2f77 f53d c2b6 353e 5269 adbe
00000090: 343b 523d 7190 31be 1e93 95bc 3288 1fbd
000000a0: bb1a efbe 9201 35bd 2995 8e3f 10cf 373e
000000b0: f487 2bbc 0cba e13c 6043 893e 36a5 9fbd
000000c0: df5c e03e 0b3a ac3e 66e9 56be 88a3 56bf
000000d0: 8672 90bd 7737 23bf 8ba7 20bf dba8 363f
000000e0: a9cf 51bd e6e9 66bc c089 7b3e f32d 50be
000000f0: 6de3 34be 20ef 51be 5def 85be cd14 81be
00000100: a5b0 803e 7e23 c0be 1fe5 a0bd 403a 613e
00000110: 5b1e 0abf ef2f ea3d 48ac 04be d05d d43c
00000120: 9c6c 66be 735d f8be 2a7f 01be 657e c0bc
00000130: fbab 943e dd8a 62bc c242 9fbf b37f fa3d
00000140: 7f58 0dbe 6e49 dc3e 7769 44be 11a5 1abf
00000150: 258a f2be c4a6 033f 344d 6b3e ab85 923e
00000160: f116 7bbe 1a5c adbe 1ddd f63e fff1 cebe
00000170: b2ab b9be f12a 95be 79f3 d5bd 50ab 22bf
00000180: eb72 a6bd 6a0b 82bf e88b 813e 4221 1b3e
00000190: 6b80 f33e 6584 a73e deab 46be b886 6ebf
000001a0: 6aa2 363e 5240 79be a844 48be f158 b63e
000001b0: d54d f13c 83dd 43bd ef5a 28be eeef e9bd
000001c0: b588 a5be 7803 dcbe b4b5 003e e985 a73e
000001d0: c738 283e 0d81 b3be 63cf 4a3c ef28 423e
000001e0: 8449 7abf c7f2 a13d 5d28 c5be f5ae 6cbc
000001f0: 445c f23e befc 8a3d bee9 5dbe 48f9 6a3e
00000200: 67f1 383f d0f1 4f3e 7ece 6e3c 7c46 0c3d
00000210: 34a7 a83d e7c3 83be 624e 11be 66fd d0bd
00000220: 9f03 b33e dcf7 913d 855b 09be ab07 ae3d
00000230: 55c9 823d 7108 2dbe e401 57be 9353 473e
00000240: 6ea7 a8be 32b3 23bf 547c e23e 9116 233e
00000250: 15ba 41bd cbbc 24be 7a8b 8cbe 735f 1dbf
00000260: 04ab b4bc cbb7 61bd a050 37bd 4b06 3abe
00000270: 42e1 95be 9fe1 1a3e a8de 13be f176 f2be
00000280: 6ba3 b8be 71e6 b33e 43db 34be c24d 8d3b
00000290: 2c75 0f3e e651 2d3d 65d5 d9be 8bdb 223e
000002a0: 1dab 84bc 192b 8abd cda4 023f 8dc6 d0bd
000002b0: f911 6dbe 1ca6 0fbe b4b1 32be 8a5d a5bd
000002c0: cf12 b83e f245 893e 3582 3b3e 310a cabf
000002d0: 98af 28be 468f d13e 1ab6 d23e e505 04bf
000002e0: 3149 f4be ba50 95be 0577 8ebe 3f6d 683e
000002f0: 5d22 9a3d f24e 943d d3e9 00bf 990a 723e
00000300: 3aba 9d3d e187 d9bc 2878 4dbd 032b fcbc
00000310: 8fde 7ebd 9b3a 3a3c 19b4 8c3e ca88 85bd
00000320: 35dd ebbe 110a 2cbe 6cf3 da3d 323e 2e3e
00000330: 343b 1a3d 4191 b13b a420 91bd ace5 7f3d
00000340: a12c 623c c44d 48bd dd6c 483e 863a 8abe
00000350: 8871 6c3e 5c29 a13d d4ed 523d eba3 1cbe
00000360: 3eed e03e 39d1 90bd 943a 343d 3dc0 8e3d
00000370: 12fa b73c 3788 fd3e 28ba d1bd d0e8 af3c
00000380: 6b5b 023e 1e0b 1b3e c7ed 303e baae e2bd
00000390: 9155 eabe d8cf c3bb 35ea 003e 61dc c73e
000003a0: c8e7 6d3e 6295 443e 542a 843e f348 c0bd
000003b0: 4886 9e3d 6ca9 c73e 4f2b a03d 849b 013e
000003c0: 5030 993e 6b84 9b3e e0e7 edbc 101b ce3d
000003d0: f19e 1c3e 9f77 d93d d63c 66ba 839f 87bd
000003e0: 2435 cfbe 1c14 ad3e 8c4e 85be d2ea e63e
000003f0: 8062 0d3f 0b3f 75be f7bb 87be 10cd c9bd

fc1.bias f4 [64]
-0.5719599 0.22154696 -0.42159146 -0.13353026 0.12894237 0.34503937 -0.004244703 0.1888487
-0.28795394 -0.017446237 0.0457312 0.32825875 -0.25461915 -0.19821328 -0.3920768 -0.5072872
0.014583421 -0.110512175 -0.056560986 0.06498811 -0.08324477 -0.085597485 0.56653285 -0.04158652
-0.026775388 -0.028458819 0.14804584 -0.380943 -0.07090791 -0.47270834 -0.2667621 -0.44657782
-0.06819112 -0.031454504 0.030885726 0.08391378 0.32066548 -0.11364872 -0.30499506 -0.19836368
0.35776833 -0.17925814 0.060048763 -0.2191205 -0.20267934 0.11491413 -0.08062282 0.22906959
-0.38670883 -0.0060316776 -0.01469306 -0.11584094 0.12438286 0.15949465 0.15032254 0.20653777
-0.05244763 0.10077493 -0.44291964 -0.76774293 -0.2524024 -0.1337072 -0.29810163 -0.017869387
00000000: f76b 12bf 35dd 623e d6da d7be 28bc 08be
00000010: 7809 043e 00a9 b03e 2617 8bbb 8e61 413e
00000020: b36e 93be 69eb 8ebc a450 3b3d 8811 a83e
00000030: 715d 82be 6cf8 4abe 4abe c8be 93dd 01bf
00000040: 4def 6e3c 3554 e2bd 7eac 67bd 7c18 853d
00000050: 3c7c aabd bc4d afbd 4c08 113f a056 2abd
00000060: 0f58 dbbc 7822 e9bc 5499 173e f60a c3be
00000070: 2b38 91bd d406 f2be 0b95 88be d9a5 e4be
00000080: c9a7 8bbd 70d6 00bd 1004 fd3c fdda ab3d
00000090: 442e a43e a9c0 e8bd 5028 9cbe d91f 4bbe
000000a0: 692d b73e 728f 37be b1f5 753d 2061 60be
000000b0: 2c8b 4fbe 1958 eb3d 941d a5bd 3891 6a3e
000000c0: b3fe c5be 61a5 c5bb 29bb 70bc 043e edbd
000000d0: 71bc fe3d 9152 233e 27ee 193e a37e 533e
000000e0: 53d3 56bd 1663 ce3d 5dc6 e2be cd8a 44bf
000000f0: e33a 81be 8aea 08be c7a0 98be d262 92bc

fc2.weight f4 [3, 64]
-2.3331845 0.31287634 1.6204807 -0.6850354 -0.5230957 0.3549626 0.5168735 -0.8911958
1.4330708 -0.0672817 0.006541382 0.25468275 1.4717083 -0.6617565 -1.8501543 1.0479567
0.18439731 0.73854595 -0.0739579 -0.83419347 0.026924338 -0.30949563 -0.377687 -0.44970074
0.06676996 0.044909842 -0.26050255 1.5610512 0.05999502 1.7824029 -1.073656 -2.007368
0.4586554 -0.5178998 0.03735569 0.38033274 0.2653794 -0.02361774 -3.2415643 -2.017142
0.360163 0.63208944 0.47950563 2.038314 -1.5740696 -0.22336961 -0.050147273 -0.018671162
1.6936344 -0.6097822 0.005126948 1.6835068 0.41617358 0.6667594 -0.20189717 0.4272441
-0.09458132 0.4158192 -2.95459 -1.8623638 1.2218329 -0.02822593 -1.8280255 0.9888044
-3.133317 -0.36960745 -3.6988966 -1.8012744 -0.4099595 -2.088088 0.8222091 0.70589584
-2.248592 -0.10161112 -2.500305 -0.8408538 -4.3927016 -0.58901715 -3.8361533 -3.701452
-5.3334136 2.0675962 -0.088602066 0.7450388 -0.115146995 -5.460274 -2.0231206 -1.572381
0.110503435 -0.059742603 0.9676264 -7.4197006 -0.0014646797 -3.5521107 0.18418002 1.9027961
-0.96256095 1.517725 -3.3655038 -1.2205213 -1.6263688 0.045974102 -4.9360647 2.0023608
-1.3845285 -5.4233923 -1.6464994 -1.1613986 -1.1178081 -8.54708 0.035052817 -7.033677
-5.35223 -1.2758659 0.021014415 -1.1824683 -2.2617278 0.8275587 -5.0145597 -1.1529905
0.0018484911 0.3803022 -1.2412791 -4.5664988 -2.6757452 -0.08188203 -5.2563567 -1.2215711
2.2347806 -0.23562041 -1.7273207 0.75611293 0.61761194 -0.122869655 -0.42520994 0.819109
-1.459461 -0.04700883 0.2406596 -0.22462024 -1.5420969 0.59104806 1.9412328 -1.085479
-0.07827773 -0.9222806 -0.053854488 0.9892855 -0.06401719 0.5550622 0.26494417 0.46000287
0.041014586 0.013717007 0.28938517 -1.6799897 -0.07261089 -1.9739962 1.0375518 1.7044548
-0.403175 0.48693037 0.25219426 -0.27681032 -0.18978134 0.037902903 3.1872368 1.6233292
-0.2636838 -0.6582118 -0.3640019 -2.2802033 1.6941361 0.3703038 -0.07933424 0.26461923
-1.7001829 0.5571989 0.0058288495 -1.6001376 -0.122415006 -0.7788093 0.34142476 -0.22957121
-0.1044221 -0.47661042 2.7018719 1.709473 -1.3929123 -0.015537131 1.8345218 -0.9996474
00000000: e552 15c0 5431 a03e e96b cf3f 7b5e 2fbf
00000010: 9ae9 05bf a8bd b53e d251 043f 6825 64bf
00000020: dd6e b73f fdca 89bd 1759 d63b c765 823e
00000030: f060 bc3f e068 29bf dbd1 ecbf 7223 863f
00000040: a6d2 3c3e 5911 3d3f 3d77 97bd b48d 55bf
00000050: 6e90 dc3c 3676 9ebe 3160 c1be 2d3f e6be
00000060: b0be 883d 62f3 373d 9760 85be 87d0 c73f
00000070: 57bd 753d c725 e43f 8f6d 89bf b878 00c0
00000080: e1d4 ea3e 1595 04bf 4802 193d f9ba c23e
00000090: cfdf 873e fe79 c1bc ca75 4fc0 db18 01c0
000000a0: 4967 b83e 9dd0 213f c381 f53e bd73 0240
000000b0: 1d7b c9bf 01bb 64be 3a67 4dbd 44f4 98bc
000000c0: 03c9 d83f b01a 1cbf f5ff a73b 277d d73f
000000d0: b414 d53e beb0 2a3f 22be 4ebe bdbf da3e
000000e0: dab3 c1bd 41e6 d43e 0118 3dc0 f061 eebf
000000f0: 0565 9c3f 113a e7bc bdfc e9bf 4922 7d3f
00000100: 4488 48c0 303d bdbe b9ba 6cc0 2990 e6bf
00000110: 36e6 d1be 3ca3 05c0 4c7c 523f 97b5 343f
00000120: eee8 0fc0 7e19 d0bd ff04 20c0 3242 57bf
00000130: 0391 8cc0 d4c9 16bf 8983 75c0 97e4 6cc0
00000140: 53ab aac0 7f53 0440 0075 b5bd ddba 3e3f
00000150: 30d2 ebbd 91ba aec0 cf7a 01c0 c843 c9bf
00000160: a04f e23d a9b4 74bd 5db6 773f 306e edc0
00000170: 7ffa bfba c855 63c0 b099 3c3e d38e f33f
00000180: 656a 76bf d044 c23f 6a64 57c0 0b3a 9cbf
00000190: da2c d0bf 574f 3c3d 3ef4 9dc0 ae26 0040
000001a0: 3b38 b1bf 6e8c adc0 7ec0 d2bf b6a8 94bf
000001b0: 5614 8fbf d7c0 08c1 8b93 0f3d e213 e1c0
000001c0: 7845 abc0 934f a3bf 6c26 ac3c 1f5b 97bf
000001d0: 26c0 10c0 e3da 533f 4677 a0c0 3195 93bf
000001e0: 1249 f23a f8b6 c23e 3ce2 9ebf c220 92c0
000001f0: 693f 2bc0 c4b1 a7bd 1334 a8c0 715c 9cbf
00000200: a506 0f40 7a46 71be d818 ddbf 9e90 413f
00000210: d11b 1e3f 16a3 fbbd 1eb5 d9be 21b1 513f
00000220: 9ecf babf 558c 40bd 786f 763e d902 66be
00000230: 6e63 c5bf ed4e 173f 517a f83f faf0 8abf
00000240: 1350 a0bd 951a 6cbf 8696 5cbd d141 7d3f
00000250: 721b 83bd 8e18 0e3f c3a6 873e 7f85 eb3e
00000260: e9fe 273d 4cbd 603c 4b2a 943e e709 d7bf
00000270: 05b5 94bd e8ab fcbf 7fce 843f 932b da3f
00000280: f46c cebe f04e f93e 9b1f 813e 15ba 8dbe
00000290: 0a56 42be 1340 1b3d b0fb 4b40 40c9 cf3f
000002a0: 9001 87be 9280 28bf 755e babe daee 11c0
000002b0: 74d9 d83f 7698 bd3e fd79 a2bd 2c7c 873e
000002c0: 989f d9bf 96a4 0e3f efff be3b 4fd1 ccbf
000002d0: b8b4 fabd 0c60 47bf 3acf ae3e b714 6bbe
000002e0: 41db d5bd 4806 f4be 78eb 2c40 03d0 da3f
000002f0: f34a b2bf 738f 7ebc 9cd1 ea3f e4e8 7fbf

fc2.bias f4 [3]
-0.15107234 1.1389155 0.08790824
00000000: b5b2 1abe fcc7 913f 3c09 b43d
