cnn_model.pt (torch, 60632 bytes, 8 tensors)

conv1.weight f4 [16, 5, 3]
00000000: f06e bdbd 41b9 1abe 1eed d93c e695 39be
00000010: 0cd4 86be 0304 80bc cd60 de3d 5186 243d
00000020: 31af fbbd 2503 02be 9c33 96be b773 3c3c
00000030: 482a 21bf 353e 1c3f 8079 d9be 507e 3cbb
00000040: b4fa 493e 567e c9bd a8e4 be3d 6d21 e13d
00000050: 0550 73be 176a 303e e34e 69be 51e1 83bb
00000060: 849a 713e 167d d23d b2e4 803d c8fc c1bf
00000070: 6309 83bf 98d7 173e 7b3b 5fbd 22c9 abbd
00000080: 03b4 5dbe 408d 4c3e d1fd 3d3e 5fdc f0bd
00000090: e1ac af3e da2f 473d eadb 283e 5f41 a63d
000000a0: 58ea 3c3e 662f 39be 7187 b13d 1940 df3e
000000b0: 95c7 34be 8426 9d3e c288 983d e292 463e
000000c0: 2185 973d ff21 6c3e 9a2c a63e 5903 7c3e
000000d0: 3215 8b3e 00ae d93e 0587 ec3d 56de 9c3e
000000e0: f69d 913e c3fb 1ebc f5b5 9dbe d8e9 96bf
000000f0: 28ea 523e 4824 6fbe c5ef 873e 140c 553d
00000100: 2f63 6cbe 5266 e63d 7ea6 8d3e 5cba 10bc
00000110: ce8d 94bd 39c2 5bbe f2fc 0b3e df69 8abe
00000120: af86 c93e 3f0b 1b3f e05e 63bf 69fa b7be
00000130: 8885 03be be3f 8b3e 3e6b eb3d 2ae7 d2bd
00000140: 88e4 aa3e d017 24be a241 b23b 7a13 053e
00000150: 7f0b c7bd 90d7 d6bd f545 d53e 32c4 1c3f
00000160: 73dc 26bf 626d 1bbf 98ed 2a3d 9033 58be
00000170: 8b01 50bd 84b2 7dbe 2461 25be c05a a6be
00000180: bd84 563e d559 04be 17f4 a1be 5c27 973b
00000190: 0e38 0bbe f052 07be bf94 e4be 52c6 babe
000001a0: 257d 313f e529 d43d 0884 d63c 6696 5f3e
000001b0: 32e3 4fbe b2e2 4f3e 1d27 41be 6fe7 5bbe
000001c0: d7c9 e0bd b90c 163d 4a9b 26be de52 533e
000001d0: 2c17 063b 4a29 a2bf 7299 8f3f 584c af3d
000001e0: 32b0 20bb 4927 97bc 8e9d 343e 0025 8e3d
000001f0: 437e b43c 977f b0bd d3e1 ca3d b4e5 3ebe
00000200: 2c1a 97be 5ec6 50be 6a46 7abe 73ac 473d
00000210: 16b9 283f ac46 593f d26e 26bf afa1 723e
00000220: 5ca0 0c3e 4d0e 95be b4c0 743d 15d3 533c
00000230: a74a d7bd 8110 90bd 88f4 9dbe 5368 4abe
00000240: 3791 21bd 8eaa 98be 5969 ec3d f85d 20bf
00000250: 6426 593f a921 9bbf e528 febc 5fd3 2c3e
00000260: 2eb0 703e 7eb2 0cbb fbc9 0ebe bbb6 e53e
00000270: 0d9e a33d 1f2d 16bd 56ec 013f 2878 803e
00000280: 3e0e ec3e 9ad4 373f 0edb c8bb e4eb abbe
00000290: 6dd1 653f e461 51be 5106 c63e 5da5 833e
000002a0: 6a3f 62bd 0713 6b3d 48c0 383e 390f b6bd
000002b0: fe5a f33d b3bb e73e ea1d ca3e fd69 fe3e
000002c0: 436c 463e 70c9 5e3f 3231 1fbe 5853 40bc
000002d0: d640 f3bd c8fe 34be 948e 7abd 725f 3cbe
000002e0: 9a64 cd3d 75bd a43c a9b9 b7bd f103 9a3d
000002f0: c581 50be 8f0e 503e dc44 7abe 7c99 623e
00000300: 68b5 51bf c57f 1f3e b012 4e3f 6788 eb3d
00000310: aaa0 103e 5875 953e fa94 0abd 136d 453d
00000320: 4966 083e 8888 aa3d 9535 cf3d 2c4f 443e
00000330: e2f6 4c3e 54c8 9abc 15bb 2abc 5350 a43e
00000340: 6332 97bf 6834 1abf 3ee6 283e 6dca 7e3e
00000350: 1e65 4fbd 4c4c 633c 4310 413e eb18 09be
00000360: 7c10 983e 26e3 623e 8406 f2bd a5bb 55bd
00000370: 1295 87bd 6ecb 0e3e 6b25 313f fdbe 1ebe
00000380: b570 c6bf 0fb1 53be 1124 34be 5b2c 943e
00000390: 5335 16be 256d b13d 8f11 883e 8c1d 29be
000003a0: 1ea0 903e 219b dd3e 4f90 0cbe 4886 353e
000003b0: c526 6e3d 603d 21bf 71f8 b43e 1deb 00be
-0.09249675 -0.15109731 0.026602324 -0.18123588 -0.26333654 -0.015626913 0.10858307 0.040167157
-0.122892745 -0.12696512 -0.2933625 0.011502198 -0.6295514 0.6103242 -0.4247551 -0.0028761812
0.19724542 -0.0983855 0.093209565 0.109927036 -0.23760994 0.1722797 -0.22783999 -0.0040246625
0.235941 0.102777645 0.0629362 -1.5155268 -1.023724 0.14828336 -0.054500084 -0.083879724
-0.216507 0.19975758 0.18553855 -0.117607825 0.34311584 0.04862962 0.1649014 0.08117937
0.1844877 -0.18084487 0.086684115 0.4360359 -0.1765426 0.30693448 0.074479595 0.19391969
0.07398439 0.23059843 0.32455903 0.24610652 0.27164608 0.42515564 0.115491904 0.3063838
0.28440827 -0.009703579 -0.30802885 -1.1790113 0.20597136 -0.23353684 0.26550117 0.05201347
-0.2308471 0.11249985 0.27666086 -0.008833494 -0.072536096 -0.21460809 0.1367071 -0.27033898
0.39360568 0.60564035 -0.8881664 -0.35933235 -0.12843907 0.2719707 0.11495064 -0.10297997
0.3337748 -0.16024709 0.005439953 0.12995711 -0.097189896 -0.10490334 0.41654935 0.6123687
-0.6518013 -0.6071378 0.041730493 -0.2111342 -0.05078272 -0.2477513 -0.16150337 -0.32491112
0.20949073 -0.12924893 -0.31631538 0.0046128463 -0.13595602 -0.13215232 -0.44644734 -0.3647943
0.6933158 0.10359553 0.026186004 0.21834716 -0.20301512 0.20301321 -0.18862577 -0.21475004
-0.10975998 0.036633227 -0.16270176 0.2063708 0.002046059 -1.266885 1.1218703 0.08559483
-0.0024519083 -0.01845135 0.17638227 0.06940651 0.022032863 -0.08618086 0.09906354 -0.18642312
-0.29512155 -0.20388171 -0.24440923 0.048748445 0.6590742 0.8487346 -0.6501285 0.2369449
0.13733047 -0.29112473 0.05975409 0.012928744 -0.10512286 -0.07034398 -0.30850625 -0.19766359
-0.03944513 -0.29817623 0.11543531 -0.62643385 0.84824204 -1.2119647 -0.03102536 0.16877507
0.23504707 -0.0021468694 -0.13944237 0.44865975 0.0798913 -0.036664125 0.50751245 0.25091672
0.46104616 0.7180878 -0.006129629 -0.33578408 0.89772683 -0.20447499 0.38676694 0.257121
-0.055236258 0.057391193 0.180421 -0.08889622 0.1188259 0.4526039 0.39475948 0.49690238
0.19377236 0.8702612 -0.1554611 -0.011738621 -0.11877601 -0.17675316 -0.06117113 -0.18395784
0.10028954 0.020109871 -0.08970959 0.07520283 -0.20362003 0.20318054 -0.2444033 0.22128862
-0.8191743 0.15576084 0.80497265 0.11500626 0.14123788 0.2919109 -0.03383348 0.048199724
0.13320269 0.083268225 0.10117642 0.19170827 0.20016053 -0.018894352 -0.01042058 0.32092533
-1.1812252 -0.60236216 0.1649408 0.24881907 -0.050633542 0.013873171 0.1885386 -0.13388412
0.29700077 0.22156963 -0.11817649 -0.052180905 -0.0662023 0.1394479 0.6919772 -0.15502544
-1.5503145 -0.20673011 -0.17591883 0.2894009 -0.14668779 0.08663396 0.26575896 -0.16515177
0.2824716 0.43282416 -0.13726924 0.17727005 0.058142442 -0.62984276 0.35345796 -0.12589689

conv1.bias f4 [16]
00000000: b701 babe 60ed 12bf 837c c43e d054 993b
00000010: 74e6 8c3e 8edd fa3d 746b 36be ef39 0dbf
00000020: 3346 4abf 16b0 a0bd decf 24be 4966 68bf
00000030: 8466 483e ad44 37bf 80bd 02bd f6d1 963e
-0.36329433 -0.57393456 0.38376245 0.0046793 0.27519572 0.122492895 -0.17814428 -0.55166525
-0.79013366 -0.07846086 -0.1609492 -0.90781075 0.19570357 -0.71589166 -0.031919003 0.29457062

conv2.weight f4 [32, 16, 3]
00000000: adf4 14bf 8bc4 cf3e dab1 04be dc00 f53c
00000010: 4718 3b3f d144 9a3e d08e a13e 23fe b7be
00000020: d010 cd3e bcd9 87bf c406 e1bf 29db 96bf
00000030: 7bc8 c83e 304c aebe 5049 8f3e 2be9 593e
00000040: 888c de3e d310 96bd 88ee ea3c 155b 5b3d
00000050: 9297 5ebe 31c6 c6be 3afa 59be 0704 40be
00000060: 27a3 353e e7ef 48bd 7f3e 103f 15dc 3cbe
00000070: 4350 3f3e 3bf2 adbe 0164 3fbe 2826 52be
00000080: 1d5f 15c0 3643 03bf 6b6c cdbe 137c 6d3e
00000090: 1671 4d3e f885 16be 4b6f e3be ad06 d2bc
000000a0: c1df 0ac0 f06d 0dbf 5021 4a3e e95f 543f
000000b0: 441d 7d3d f54a 173d 0e75 86bd 72a0 1a3f
000000c0: d746 8dbd 946e abbd 69f2 10be ca0d e3bc
000000d0: 87d6 1dbe 11c4 c53c dd01 3fbe 6491 eebc
000000e0: 092b a8bc 4f8a 853d 60e7 debd 9920 223d
000000f0: 1cc7 593d 527b 893d bf6b 25be b748 883b
00000100: b616 1d3d 609e 62bc 9423 493c 882f 243d
00000110: 324e dcbc 0ff8 3bbc c15b 23bd a6e4 343c
00000120: c7cb 8ebd 9fed e5bd 4e99 d63d b73a 1ebd
00000130: 78d9 07bc 58cf 37bd 13c2 18be 3443 eebd
00000140: 0a0b d83d 6cd5 fe3b 16cd b43d 3dbe 99bd
00000150: 83d3 29bd 7e4d 1ebe 5a33 b8bd f6c9 ec3c
00000160: 2066 13be 1230 1fbc 9242 c33d 0a8b f8bd
00000170: 2542 07be 11ec c73d 543e f43c da6e 54bd
00000180: 8a18 c4be 105d 93bd 186b a33e 2b53 963e
00000190: 3c76 243e e6f7 18be 5230 603e 26e9 c23e
000001a0: 3f88 333e 797d 6ebe d07d 1fbd 8ec9 583e
000001b0: 45de a3bb 0563 ae3d 610a 27be 6405 013d
000001c0: 6733 72be 053e 133f bfd8 afbe afcd 9c3e
000001d0: a890 5bbe 1630 0fbe 845f 04bf 1771 e0bd
000001e0: cdc8 223e 3f88 d9be db53 3e3e 4d7a 623e
000001f0: fab0 afbc 3197 4abe 0646 793e d3aa 40be
00000200: 4591 9bbe 145f b03c 168d 6ebe ca6b 82bc
00000210: 08b0 00bf f68b c63e e86e 22be 31b3 94be
00000220: ca29 a2bd 6f0d b5bd d668 e7be fbb5 4d3e
00000230: 9635 893e e42c 663e db13 5ebd c710 c6be
00000240: 37ae 613e 6607 8d3d a012 60be b7e3 073e
00000250: f0ad 2e3f 07a7 833d 4ff6 33be 01c8 af3c
00000260: 1555 10be a91a 1c3b 391b c5be 1612 3fbd
00000270: ecd8 27bf 78ee a23c fba3 aabd e3d9 06be
00000280: b894 6d3d 46e0 083f 7507 1b3e 5724 3c3d
00000290: bb32 6bbd 3433 3a3f fd63 b13d bf2e 803d
000002a0: 7e73 e2be 63f1 fc3d 5ea9 dabe 1cce b2be
000002b0: 3632 0e3e b8db 663c 0223 b3be 52a6 633e
000002c0: b7a6 0cbe 5210 d9be 4f85 49bd e5f1 953e
000002d0: ee10 653e e7cb 9a3e 9519 0abf 1f2f 9bbe
000002e0: 83ea 1dbf 58a6 c33d 25d0 85be 7712 8f3e
000002f0: e2c4 5f3e 85f3 58bd 1906 9d3e 26f1 97be
00000300: 4e10 313e 96e8 803e 89a6 dabe d3cf 64bd
00000310: 50d8 563e 46de a53c a84a 543e 5f57 3ebe
00000320: ac5f 1f3e 5072 8c3d c625 e73d b2fe efbc
00000330: b948 2e3e a41f 873e 0447 1ebf 3b55 20bd
00000340: dc75 4bbd a1ee e33d 369d 80bf fa30 92be
00000350: 96c2 02bf 9187 fa3d 1204 b8be 85af cb3e
00000360: 4856 3e3d 7029 8bba a93c 823e 0b54 6abd
00000370: 932e b8bd 62b6 19be 6849 3d3d 0184 52be
00000380: d8b3 b2be 5378 b53e 79e8 5e3d c1c0 dc3d
00000390: 4526 9cbd 1f9e 2cbe 4cac 0a3e 8243 063e
000003a0: f060 273e 5a38 953e 574b bf3e 93ed b3be
000003b0: 03d0 8ebd 7510 cebe 200b c53d 6644 b53e
000003c0: 742c c53e 39e7 1abf e647 2c3e f0ff efbd
000003d0: 51af ac3e f5c6 4c3d cc6e 683d 5947 babc
000003e0: 59bc 84be 9f14 c63e 30d3 f8be dc4f 38bf
000003f0: e190 223e 5022 cdbe 7753 13be 140c a7bd
-0.58185846 0.40579638 -0.1295847 0.029907636 0.7308392 0.30130628 0.3155427 -0.35936078
0.4005189 -1.0613322 -1.758019 -1.1785632 0.39215454 -0.340425 0.2798562 0.21280353
0.43466592 -0.07327428 0.028678194 0.05355366 -0.21737507 -0.38823083 -0.2128686 -0.18751536
0.17738019 -0.049056914 0.5634536 -0.1844333 0.18682961 -0.3397387 -0.18690492 -0.20522368
-2.3339303 -0.5127443 -0.4012178 0.23191862 0.2006267 -0.14699543 -0.44420847 -0.025637949
-2.1699069 -0.55245876 0.1973927 0.8295885 0.061795488 0.03693672 -0.06565295 0.6040107
-0.06898277 -0.083707005 -0.14154972 -0.027716536 -0.15413867 0.024141343 -0.18653055 -0.029122062
-0.020528333 0.06520521 -0.10883975 0.03958187 0.0531684 0.067129746 -0.16154383 0.004159059
0.038351737 -0.013831705 0.012276549 0.04008439 -0.026892755 -0.011472716 -0.039882425 0.011040842
-0.06972461 -0.11226963 0.10478459 -0.038630214 -0.008291595 -0.044875473 -0.14917783 -0.11633912
0.105489805 0.0077769067 0.088281795 -0.07506988 -0.04146148 -0.15459248 -0.089941695 0.028904896
-0.14394426 -0.009716051 0.09534182 -0.121358946 -0.13208826 0.09761823 0.029814877 -0.05186353
-0.38299972 -0.07195485 0.31917644 0.29360327 0.16060728 -0.14938316 0.21893433 0.38068503
0.17532443 -0.23290052 -0.038938344 0.21170637 -0.005000862 0.0851498 -0.16312553 0.03149928
-0.23652421 0.5751651 -0.34345052 0.30625674 -0.214419 -0.13983187 -0.51708245 -0.1095907
0.15896912 -0.4248676 0.18586676 0.22116967 -0.021446694 -0.19784237 0.24343118 -0.18815164
-0.3038427 0.021529712 -0.23296008 -0.015920538 -0.502686 0.38778657 -0.1586262 -0.29042962
-0.07918127 -0.08840453 -0.4519717 0.20088951 0.26798695 0.22478062 -0.054218154 -0.38684675
0.22039114 0.06886177 -0.21882105 0.1327046 0.6823416 0.06428342 -0.17574428 0.021457674
-0.14094956 0.0023819602 -0.38497332 -0.046648107 -0.6556537 0.019889101 -0.08332058 -0.13169055
0.058003157 0.53467214 0.15139563 0.045933094 -0.057421427 0.7273438 0.086616494 0.06258916
-0.4422874 0.12350728 -0.42707342 -0.34922874 0.13886341 0.014090471 -0.34987646 0.22231415
-0.13735472 -0.42395264 -0.0491994 0.29286113 0.2236974 0.3023369 -0.53945285 -0.30309388
-0.6168596 0.09553212 -0.26135364 0.27943775 0.21852449 -0.052966613 0.30668715 -0.2967617
0.17291376 0.2517745 -0.4270518 -0.05586226 0.20980954 0.02024759 0.20731604 -0.18588017
0.1556384 0.06857741 0.112865016 -0.029296253 0.17019929 0.26391327 -0.6182711 -0.039143782
-0.049672946 0.11129499 -1.0047977 -0.2855299 -0.51078165 0.122328885 -0.35940605 0.39782348
0.046469003 -0.0010617208 0.25436905 -0.057209056 -0.08993258 -0.1501098 0.046212584 -0.20558168
-0.34902835 0.35443363 0.054420922 0.107789524 -0.07624487 -0.16857193 0.13542289 0.1311169
0.16345572 0.29144555 0.37362167 -0.35142192 -0.06973269 -0.4024693 0.096212626 0.35403746
0.38510478 -0.6050907 0.16824302 -0.11718738 0.33727506 0.049994428 0.05674629 -0.0227391
-0.25924948 0.38687608 -0.48598623 -0.71996856 0.1587558 -0.4006524 -0.14387308 -0.081566006

conv2.bias f4 [32]
00000000: 5723 11be 5370 3dbe 0c1b 983e 230c a83e
00000010: 0bc6 723e 7125 b83c eed4 e23e 5ee4 9d3d
00000020: d3e6 e63c b95e 1f3f cdca e43e ae95 253b
00000030: ab6f 303f 5ab5 473e 9544 cb3e 03a5 b0be
00000040: 7a92 acbe c58a e53c e40c 3dbc b3dd 523e
00000050: 324f af3d 54ff 54bf 51f6 8a3e b148 4ebf
00000060: 16dd aa3c f087 af3e 6636 86bc 6753 d7be
00000070: d265 a83e 4fbe 383f 2adc 6bbd d9f7 0f3f
-0.14173637 -0.1849988 0.29708135 0.3282176 0.2370836 0.022478791 0.44303077 0.07709573
0.028186237 0.6225391 0.44685975 0.0025266218 0.6892039 0.19502774 0.3970076 -0.34500894
-0.33705503 0.028020272 -0.011538718 0.20592384 0.08560027 -0.832021 0.2714105 -0.8057967
0.020857375 0.342834 -0.016383361 -0.42055818 0.32890183 0.7216539 -0.05758301 0.5623756

fc1.weight f4 [64, 192]
00000000: a67e 88be ec90 0dbf a7b3 b63e 2dfe be3e
00000010: b7ee f63d 1db0 303e 3c3e 11bd 6eea bc3d
00000020: ebe6 8a3d f4ff 2fbd 6c3b e9bc 3b76 7cbc
00000030: 82b0 f33e 2ce0 7bbe 427c 7fbe 1728 0bbe
00000040: a445 4dbe 28cb ea3d c79f 8abc 2e48 dabc
00000050: 4004 ccbe 4994 7dbd 5c3c dc3e 4f08 08be
00000060: f41a c43d f3f9 203e f6fa 5f3e f18c 143e
00000070: 4b79 89be 602c 433d ce39 52be 2e52 553c
00000080: eccc 1a3e f1d2 afbe 738f d23e 978f dfbd
00000090: f2a9 0bbe 9f77 863e 65cf 903e 2fb3 93bd
000000a0: 5d1b afbd 664e e63d 96b6 0c3e 1ac2 e73e
000000b0: ab01 00bf c4a6 203e 0cb5 983e 049e 853e
000000c0: 5699 86bd c461 4dbe 8c36 90bd 1f3d ad3e
000000d0: bbc9 083d 0556 0dbe a2c7 423d 4aad 693d
000000e0: 2ade c03e 984b 713e 53bf abbd 2e49 2abe
000000f0: 88c1 8cbe 6c8a a33d c3e5 413e 9150 57be
00000100: 395b bdbc f327 ed3d 2071 8abc 7cc7 0fbd
00000110: 002b 13bd cae6 523c f3cd bd3d 1273 a5bb
00000120: f5e4 f5bd fd06 4a3d 6576 7e3e f852 0ebf
00000130: 7b49 f6be 6991 23be 85ec 9f3e bb5f 20bd
00000140: 6cab 95be 91b4 19be e5d9 de3c 0c8b 3a3f
00000150: 14e1 293e 9f35 6ebc c3ba 42bf 3eaa e6bd
00000160: 8304 593e 2b9a 933d 7160 d7be 1fc8 e33d
00000170: 5965 a9be b556 3bbe 43ae f9bd 06f3 bcbe
00000180: 6ea5 78bd 7289 4c3e c75b d13e a35a a33d
00000190: 2946 8ebe 9c3b a6be c19d 73bd c80e 683d
000001a0: 6e23 8ebb 94d2 6b3d e0a4 13bc 4af8 69bc
000001b0: 8f8d 52bd 853e 323d b5cd 1fbd 92d6 e5bc
000001c0: e69a ddb8 f839 bfbd 552f d23c e442 203e
000001d0: 80a3 d7bd 8778 8dbe 1aa6 6e3d 5840 c13e
000001e0: 33b7 ef3d 093e 923e 9635 74be 2f07 52bd
000001f0: bec4 96be 68c1 013f acf8 8d3e e075 0ebe
00000200: 0fe0 163f 6797 d0be 8702 863e 74b8 803e
00000210: d0a4 823e f97b d73e 43f2 9c3e a130 a63e
00000220: c912 d1be aa6f 2ebe ea07 00bf e718 59be
00000230: e34a 4a3e fe20 d4be 0bc7 f8bb 3b49 5c3e
00000240: 668c c3be ce53 403e 44ee a33e e974 283d
00000250: 9a2e c43c 0807 d83e 8ee3 4c3f 3b3f 9cbc
00000260: bd51 cfbe 6d1d ddbe 9a6a 983e 5192 63be
00000270: 5340 f23e 93aa b1be 6529 ecbd e6c2 2cbe
00000280: 024d 4e3e 9d86 2c3e 89e5 b43d 5593 b2be
00000290: c625 b1be 6fd7 663e 19c3 333e c0e6 d83e
000002a0: 774a 4bbf c574 8c3e 5de0 0a3d 8505 093e
000002b0: d377 72be f42e cb3e 4405 ae3c 7420 e0bd
000002c0: 0da5 903e 26f3 6dbe a9a8 63bf 0aa3 89be
000002d0: 2433 a8be f6a2 203f 3825 a33e b886 0a3c
000002e0: a798 f9be 31da b8be bc81 5dbe f2b5 29bd
000002f0: 0b76 aabd 7147 763e a8ff 13be ded2 063d
00000300: 44ce abbd 637d 553e f364 833e 6705 00be
00000310: 07c2 0dbb 47fd a93e 6800 6f3d 20c3 0f3d
00000320: 6104 8dbd 1602 0dbd 0134 663d 7fad 283d
00000330: ff95 a83e 0b58 db3d a40f 6b3d 5dc7 1ebd
00000340: 84a9 bfbe 95ce 61be aa93 58be 5447 1ebe
00000350: 5143 cdbd 99a9 ae3e d444 173e 0728 5b3c
00000360: 1858 2fbe 8664 03bc 0168 c33d f2c8 7b3c
00000370: 9618 c5bd c970 a73d bda9 b63d 715b d13c
00000380: 35e6 5d3d cb56 13bd 040b 743d 5e12 7dbe
00000390: 3763 0abf d89f 9ebd 1535 7abe 15cf 57be
000003a0: 4b3d 13bf 8deb 6f3e 9a62 053e 53db 4fbd
000003b0: d6c8 9cbe 83bb 303e e7b2 933e 23d4 b13e
000003c0: 7b62 093f 358e e8be 70a4 3a3d 636d 77be
000003d0: 3136 3ebf b67a 4cbe 3d75 983e f3d2 82bd
000003e0: d383 61be 8f82 22be 4ed1 673c 3ff3 fa3e
000003f0: a366 12bf 3d99 26bf ff2e 8dbc 891f e53d
-0.26659125 -0.5529926 0.3568394 0.37303296 0.1205725 0.17254682 -0.035459742 0.092244014
0.06782325 -0.042968705 -0.028470717 -0.015409048 0.47595602 -0.24597234 -0.24949744 -0.13589512
-0.20046097 0.1146453 -0.01692189 -0.026645746 -0.39846992 -0.061908994 0.430148 -0.1328442
0.095754534 0.15720348 0.21873078 0.1450689 -0.26850352 0.04764974 -0.20529863 0.013020081
0.15117234 -0.34340623 0.41125068 -0.109160595 -0.13639048 0.2626314 0.2828323 -0.07211911
-0.08550141 0.11245422 0.13741526 0.45265275 -0.50002545 0.15688616 0.29825628 0.2609712
-0.06572215 -0.20056826 -0.07041654 0.33835694 0.03339551 -0.13802345 0.047553666 0.057050027
0.37669498 0.23563993 -0.083861016 -0.16629478 -0.27491403 0.07985386 0.18935303 -0.21026827
-0.023114787 0.11579885 -0.016899645 -0.035102352 -0.03592968 0.012872407 0.09267797 -0.005049118
-0.12006561 0.04932307 0.24849851 -0.5559535 -0.48102936 -0.15973438 0.31235138 -0.039153796
-0.29232347 -0.15010287 0.02720351 0.7286842 0.16589767 -0.014539151 -0.76066226 -0.1126294
0.21193127 0.072071396 -0.42065766 0.111221544 -0.33085135 -0.18294795 -0.12191441 -0.36904162
-0.06070464 0.19974306 0.40890333 0.07976272 -0.27787903 -0.32467353 -0.059476618 0.05665472
-0.0043377196 0.05757387 -0.009011477 -0.014280388 -0.051404532 0.043516655 -0.039014537 -0.028056417
-0.00010566953 -0.093372285 0.025657335 0.15650517 -0.10529232 -0.27631018 0.058263876 0.37744403
0.11704864 0.28562954 -0.23848566 -0.051276382 -0.29446977 0.5068574 0.27728784 -0.13912153
0.58935636 -0.4074051 0.26173803 0.25140727 0.25516367 0.4208677 0.3065358 0.32458976
-0.40834644 -0.17034784 -0.50012076 -0.21200906 0.1975513 -0.4143142 -0.007592087 0.2151231
-0.38193053 0.18781969 0.3201772 0.04112712 0.023948003 0.42192864 0.8003472 -0.01907312
-0.4049205 -0.43186513 0.2976883 -0.22223784 0.473147 -0.3470045 -0.11531333 -0.16871223
0.20146564 0.16848226 0.08832843 -0.3487803 -0.3459913 0.22543119 0.17554893 0.42363548
-0.794105 0.27432838 0.033905376 0.13381012 -0.23678522 0.3968426 0.021242745 -0.1094369
0.28250924 -0.23237285 -0.8892923 -0.268822 -0.32851517 0.6274866 0.31864333 0.008454971
-0.48749277 -0.36103967 -0.21631521 -0.041433282 -0.08323296 0.2405069 -0.14452994 0.032915942
-0.083889514 0.20848612 0.25662956 -0.12502061 -0.0021630542 0.33201048 0.058349997 0.035098195
-0.06885601 -0.034425817 0.05620194 0.041181084 0.32926938 0.10710152 0.057387963 -0.038764346
-0.37434018 -0.22051461 -0.2115008 -0.15456897 -0.10022605 0.34113768 0.1477235 0.0133762425
-0.17123449 -0.008019572 0.095413215 0.015367733 -0.0962383 0.08175809 0.08919094 0.025556298
0.05417462 -0.035971444 0.059580818 -0.24714038 -0.5405764 -0.077453315 -0.24434312 -0.2107509
-0.575154 0.23429699 0.13025895 -0.050746273 -0.30621976 0.1725903 0.2884743 0.3473216
0.53665894 -0.45420995 0.045566976 -0.24162821 -0.7430144 -0.19968686 0.29776946 -0.063878916
-0.22022943 -0.15870117 0.014149023 0.49013707 -0.5718786 -0.65077573 -0.017234324 0.111876555

fc1.bias f4 [64]
00000000: fda2 dfb9 14f7 6d3c c692 11bd 60e8 c13d
00000010: cefa 9ebe b136 83bd a93f c4bd fe09 3abe
00000020: 1aa6 32bc c32c fb3d e3e2 583e 21bd a93d
00000030: c186 dfbc 1fed 02bb f70a 4c3e e263 fdbe
00000040: 4cec f03c ee01 98bd 2c89 99be 7353 073d
00000050: 0640 cf3d a496 e5be 0de0 19bd 143b 6fbd
00000060: 843c 37be 2e62 25be ad51 e6bd 291b d4bd
00000070: b112 87be 9b9e 9abe e9b9 68bd 77cd 1fbe
00000080: 4fa7 d6bd f018 be3e c515 65bd 1835 14bd
00000090: 1a0b dfbd 96db 31bd 7907 013e 592d 533d
000000a0: 6e66 593e 25d3 ac3e 41d8 543d 4438 5ebe
000000b0: a375 3fbd 8b20 e5be d4d8 c7bb f768 cc3e
000000c0: 43f1 433b 8dea d33d 4c19 343c e430 abbd
000000d0: d48a 603e a978 e1bd f2f0 9dbd b79c b8bd
000000e0: c8bd 6b3e e1f1 cbbc 75b9 ca3d 085d ebbe
000000f0: 7cbf 093e 3067 d4be 039f d1bd 787f 1cbe
-0.0004265531 0.01452424 -0.035540365 0.0946815 -0.31050724 -0.06406916 -0.09582455 -0.18167874
-0.0109038595 0.12264397 0.211803 0.082880266 -0.027285935 -0.001997776 0.19926058 -0.49490267
0.02940955 -0.07422243 -0.29987466 0.033038568 0.101196334 -0.44841492 -0.037567187 -0.05840595
-0.17894179 -0.16150734 -0.11246047 -0.10356743 -0.26381448 -0.3019913 -0.056817923 -0.15605722
-0.1048113 0.371284 -0.055928964 -0.036183447 -0.10890789 -0.043422304 0.12600507 0.05155692
0.2123048 0.3375484 0.05196405 -0.21701151 -0.046743046 -0.4475139 -0.006098846 0.39923832
0.0029898442 0.103474714 0.010992359 -0.083589345 0.21927959 -0.11009342 -0.07711972 -0.09014266
0.23021615 -0.02489561 0.09898654 -0.45969415 0.13451952 -0.41484976 -0.10235407 -0.15283

fc2.weight f4 [3, 64]
00000000: 14ef c33e 7b53 ddbd be71 ddbd 52fd 09bf
00000010: a68e acbf 291d d73f d532 72bd 92b4 a7be
00000020: 31e1 03bf e1a6 233e 2098 88be 90d7 89be
00000030: fe6d fe3e 35fb e53d 0f46 b63e defc 18c0
00000040: fe81 a4be a040 0040 ad92 05c0 1cfa 14bf
00000050: bc4f 153f 5420 0040 3877 0a3f e45a a0bd
00000060: 2908 b7bf 92fa f4bf 66bb 0d40 4b21 063f
00000070: 62bb c63f 1851 e6bf 255a 1ebb 874c a23f
00000080: ee8d 353c d188 cc3e bb8e a63f b7cc 59bd
00000090: 8d15 883f 8508 52bd 8780 0abf 7dc2 48be
000000a0: af54 aabe bcb0 b23e 4a65 373f 6417 2ac0
000000b0: 8b34 25bc 21be 1ac0 d6e6 aabc c3f2 85be
000000c0: c68e d3bc aedc bf3e 3727 a1bd 8048 9ebf
000000d0: aaa5 843e 88ab 093f a5fe c03b 1276 cf3c
000000e0: f482 e03e 135e d83e 9bbc 7bbe 7385 dbbf
000000f0: ba9a 033f b815 1240 b7c0 8b3d 3276 b3be
00000100: 05e5 d9c0 ce31 ccbf 404b d7bc 0527 00c0
00000110: 4ba4 6fc0 3b29 82c0 75c3 5a3d 88b8 21bf
00000120: 1dc2 c23e 1fbd e8c0 2323 4cbf dd4f 8dbd
00000130: b07a 92bf 9e33 ae3d 8019 57c0 edcb bdc0
00000140: 2b89 ebbf 1896 17c0 8793 03c0 0d11 ed3f
00000150: 148e 7ebf 0398 08c1 cb4c d2c0 afdd 93bd
00000160: d9cd 46c0 dcb3 ccc0 bbca 8b3f 15c2 8dc0
00000170: 96cc c2bf ab9c 48c0 a3fa d33d 8cf1 3ac0
00000180: 739f 8dbd e8b1 8ebe d484 c9c0 a761 b9bd
00000190: 0171 673f d847 cc3d c05e 8b3e df73 81c0
000001a0: 42f4 7bbf b8ce f4bf b356 b23e 364e 8ac0
000001b0: 29fc 11bd a018 b0c0 a3af 943d d4c6 d6bf
000001c0: 14a6 b5bd fb2d 19c0 9ba8 15bd 4564 133f
000001d0: 704f 35c0 2e1e 7cbf b95c 103b 99ef 643c
000001e0: adc1 f2bf 9934 24bf 0341 dbbf aea9 ffc0
000001f0: f9a9 14c0 fcd6 adc0 5798 bd3d 546d a6be
00000200: bdc1 41be 584c d53e 0754 d0bd e18f e43e
00000210: a8f2 ad3f 25d5 c6bf 9191 19bd 0f23 ea3e
00000220: 5aaa 973e 8220 52be 9da9 b43e 72dc 9d3e
00000230: 9d88 bfbe 2bae bd3d 700c 84bd 2086 0d40
00000240: ab09 113f 044f 05c0 089d 0240 2895 123f
00000250: e25c 7ebe 53b9 f3bf f58a efbe 38d8 87bd
00000260: fcd3 b33f e1d9 0040 44aa 15c0 23b0 9fbe
00000270: 5b33 c6bf 52d7 f33f 613d ffbc 559f b0bf
00000280: 5b83 88bd 8647 c3be b5b7 b4bf a4cb 55bd
00000290: 3f18 98bf 8d75 843c aa97 e93e d4ed a23e
000002a0: 7946 b63e 8494 9bbe 941a 80bf a433 2740
000002b0: 0d5c 39bd 45db 1240 a64d 9bbd 7c7a 073f
000002c0: e79b 8c3d 0244 b4be 89cd d4bd 0f5e 8f3f
000002d0: 8692 57be 3b2e d3be 933c a5bc a6ad 6f3b
000002e0: 3377 cdbd ff0e c7be 7851 8c3e 3c05 cd3f
000002f0: 30a4 95be 7be1 0bc0 069f 833d d56f d13e
0.3826834 -0.10806938 -0.1081271 -0.5390216 -1.3481033 1.6805774 -0.05913051 -0.32754952
-0.5151549 0.15981628 -0.26678562 -0.26922274 0.49693292 0.112295546 0.35600325 -2.3904338
-0.32130426 2.0039444 -2.0870774 -0.58194137 0.5832479 2.0019732 0.54088163 -0.07829836
-1.4299365 -1.9138968 2.214563 0.5239455 1.5525935 -1.7993498 -0.0024162617 1.2679604
0.011081202 0.39948133 1.3012308 -0.053173747 1.0631577 -0.051277656 -0.5410237 -0.19605441
-0.33267733 0.34900463 0.7163893 -2.6576777 -0.010083328 -2.4178545 -0.020862024 -0.26161775
-0.025824916 0.37473053 -0.07868808 -1.2365875 0.25907642 0.5377736 0.005889731 0.025324855
0.4384991 0.42259273 -0.24583666 -1.71501 0.5140797 2.2825756 0.06823867 -0.35051113
-6.8092065 -1.5952699 -0.026281 -2.0023816 -3.7444026 -4.067533 0.05340906 -0.631722
0.38038722 -7.273086 -0.79741114 -0.06899998 -1.1443691 0.08505939 -3.3609314 -5.9311433
-1.8401235 -2.368536 -2.0558794 1.8520828 -0.99435544 -8.537112 -6.571874 -0.07220017
-3.106314 -6.3969555 1.0921243 -4.4299417 -1.5218685 -3.1345623 0.103505395 -2.9209929
-0.06915178 -0.27870107 -6.2974644 -0.09051829 0.90406805 0.099746406 0.27220726 -4.0453944
-0.9841958 -1.9125586 0.3483177 -4.322047 -0.03564087 -5.503006 0.072600625 -1.6779428
-0.088695675 -2.3934314 -0.036537748 0.57574874 -2.8329735 -0.9848355 0.0022027923 0.01397314
-1.8965355 -0.6414276 -1.7129215 -7.989463 -2.3228743 -5.432493 0.09257572 -0.32505286
-0.18921562 0.41659808 -0.10172277 0.4464102 1.3589678 -1.5533797 -0.03749234 0.45729873
0.29622155 -0.20520213 0.35285655 0.3083225 -0.37408915 0.092617355 -0.06447685 2.2113113
0.5665538 -2.0829477 2.0408344 0.57258844 -0.2484012 -1.9040931 -0.46785703 -0.06633037
1.4049067 2.0132983 -2.3385172 -0.3118907 -1.5484422 1.9050086 -0.031157197 -1.3798624
-0.06665679 -0.38140506 -1.4118563 -0.05219616 -1.1882399 0.016169334 0.45623523 0.31822073
0.3560064 -0.30386746 -1.0008111 2.612527 -0.045253802 2.2946332 -0.0758317 0.5292127
0.068656735 -0.35208136 -0.10390765 1.120058 -0.21051988 -0.4124621 -0.020170486 0.0036572008
-0.10032501 -0.3887863 0.27405906 1.6017222 -0.29226828 -2.1856372 0.06426816 0.40905634

fc2.bias f4 [3]
00000000: bda6 e0bd 396b fa3f 407c d8bd
-0.10969303 1.9563972 -0.10570574
