cnn_model.pt (torch, 60632 bytes, 8 tensors)

conv1.weight f4 [16, 5, 3]
000000 9b 7c b5 be a3 c6 47 bc e4 d7 da be e8 32 fb be
       -0.3544663 -0.012193355 -0.42742836 -0.49062276
000010 7a 3f 22 bd 0f d0 05 be 7a 96 f5 3c 0b 2c 95 be
       -0.039611317 -0.1306765 0.02997898 -0.29135165
000020 ff 02 c3 bd 69 d3 95 be 18 24 d0 bd b8 ea 64 be
       -0.09522056 -0.29262856 -0.10163134 -0.22355163
000030 a9 50 f5 be 09 ad cb 3e ca 9b d4 bf 44 5a 12 3e
       -0.479131 0.39780453 -1.6610043 0.14292246
000040 91 5d db 3d d1 da 30 be c7 d9 8c bd d4 e2 6c bd
       0.10711206 -0.17270972 -0.06877475 -0.057833508
000050 8b 31 19 be 6c c1 7b 3e 47 19 f8 bd 43 cb a3 be
       -0.14960305 0.24585503 -0.12114196 -0.31991014
000060 f0 2a 11 3e 7b 7a 88 be d6 5f 11 be b2 1f dd 3d
       0.14176536 -0.26655945 -0.14196715 0.10797061
000070 5d 71 15 bf b9 37 e6 3f ef 77 8d 3f a4 64 42 3f
       -0.58376104 1.7985755 1.1052226 0.75934815
000080 47 6d 63 be c3 72 3d 3f 21 a6 74 3d b5 90 af be
       -0.22209655 0.7400324 0.059728745 -0.3429009
000090 40 30 21 3f f2 34 60 3d 9f e5 e3 be 92 c0 b2 3e
       0.6296425 0.054737993 -0.44511124 0.34912544
0000a0 40 5e c5 ba 21 d7 05 bf ca 95 40 bf f3 82 0d 3f
       -0.0015057996 -0.52281386 -0.7522856 0.5527794
0000b0 ad 6c 2d 3e 99 d2 a4 bd 59 24 28 3e ba 99 51 3e
       0.16935988 -0.08047981 0.16420116 0.20468798
0000c0 f5 09 25 be 45 ce 40 3e ba 4d 2d 3e 40 4c 79 be
       -0.1611708 0.18828686 0.16924182 -0.24345493
0000d0 42 4b 3b be 79 16 51 be a1 c4 67 bd 02 04 0e 3e
       -0.18290427 -0.20418729 -0.056584004 0.13868716
0000e0 2a f2 09 3e 92 62 e0 bc 74 52 e6 bd 4a a5 94 3e
       0.13471285 -0.027390752 -0.112461954 0.29032356
0000f0 e4 8e ab 3d e8 d3 75 3e 5f 80 09 3e 33 d4 90 3d
       0.083768636 0.24006617 0.13427876 0.07071724
000100 97 92 76 3e b5 bd a7 bd b6 ea 75 bd e8 65 3c 3e
       0.24079357 -0.081904806 -0.06003829 0.18398249
000110 86 14 35 be 1f 62 14 3e c5 ab 44 3c 25 ab 34 bd
       -0.1768361 0.14490555 0.012003844 -0.04410853
000120 c5 89 6b 3f df de 21 bf 71 b7 99 3d 37 1a 9a 3e
       0.92007095 -0.632307 0.07505692 0.30098125
000130 1c e6 33 3e 37 bc 18 3f 34 b5 16 be 59 e8 1e 3e
       0.17568249 0.59662193 -0.14717561 0.15518321
000140 3d de f4 3e 38 2c 0c bd 6f 26 c1 3d 26 28 0f 3f
       0.47825804 -0.034221858 0.09431159 0.55920637
000150 d9 f8 52 3d 05 7c d7 3e 0b 9f 1c 3f 17 78 95 3f
       0.05150685 0.42086807 0.6118018 1.1677274
000160 8f 63 6d 3f 3d 49 61 bf 09 69 78 be a2 93 97 3e
       0.9273004 -0.8800238 -0.24258818 0.29604822
000170 59 d8 35 3e 29 92 20 3e 4b 68 b0 3e f4 ea b3 3e
       0.17758311 0.15680756 0.3445457 0.35140193
000180 ac 1a 3a 3c d5 35 5a 3e 2c 38 a0 3e df 9f f2 3e
       0.011358898 0.21309598 0.31292856 0.47387597
000190 a5 f5 24 3e 5d ea f6 3e ca 9b ab 3e 9a ef 13 bf
       0.16109331 0.4822568 0.33517295 -0.5778748
0001a0 93 32 b3 bf b2 c1 41 3e ff 4e b8 3e 81 bf 8a 3e
       -1.3999809 0.18921545 0.3599777 0.2709923
0001b0 53 bc d3 3d 49 c3 a0 3d 4a ee 91 3e 9f 0e 99 3e
       0.10338654 0.07849748 0.28502113 0.29893968
0001c0 94 8e 07 3f 40 c1 c9 3e 89 ab 90 3d 31 96 e5 3d
       0.5295193 0.3940525 0.07063968 0.11210287
0001d0 bb ff bc 3e 43 15 13 3f e0 29 46 be eb a0 a6 3e
       0.36913857 0.5745432 -0.19351912 0.32544646
0001e0 ae 90 a9 3d d2 74 8f bd 26 78 11 be b4 53 70 3c
       0.082795486 -0.070047036 -0.14205989 0.014668394
0001f0 2d df 58 3e a8 42 85 bd 3c be 6a 3e 5b 21 be 3e
       0.21178885 -0.06506854 0.22924131 0.37134823
000200 45 0c 9b bd f1 b0 42 3d ba ef be 3d 3e c7 77 3e
       -0.075706996 0.047532026 0.09323068 0.24197099
000210 6c 43 83 bf 77 da e9 bf 2c 25 a7 3f a6 10 5d bd
       -1.025495 -1.8269795 1.3058219 -0.053970955
000220 7b 8b 82 3e ab e6 05 3f ab 10 60 be 75 d7 b6 3e
       0.2549704 0.52305096 -0.21881358 0.35711256
000230 eb c1 82 3e 69 b8 2b be e9 0e 7e 3e 03 48 38 3e
       0.25538573 -0.16769566 0.24810375 0.1799622
000240 5c 9f 98 3e 27 e7 b1 3e 52 dd 2f 3e 5d aa 81 3f
       0.29809082 0.34746668 0.17174271 1.0130116
000250 2f ae 81 bf 21 99 fe bf 1d 4c 2e 3e 06 84 3b 3e
       -1.0131282 -1.9890481 0.17021222 0.18312082
000260 c3 87 00 3f 7b 3e 3e bc f0 d6 2b 3e 71 0a be 3e
       0.50207156 -0.011611576 0.16781211 0.3711734
000270 10 15 ad 3e 72 00 86 3c ca 89 08 3f b8 f3 d0 3e
       0.33805132 0.016357634 0.5333525 0.40810943
000280 dc 4d cf 3d d3 71 72 3d 60 99 9c bf e8 f8 2b 3c
       0.10122272 0.059190582 -1.2234306 0.010496356
000290 02 45 35 bf 32 64 15 bf cf 43 a2 bd 92 42 61 3e
       -0.7080842 -0.5835601 -0.0792309 0.21998051
0002a0 83 36 9e be eb 4c e7 3d 81 60 07 3f e7 2f 6b be
       -0.30900964 0.11293968 0.5288163 -0.22967492
0002b0 cd b7 d2 3e 9e e1 fe 3e 29 d9 2a bd b6 34 b1 bd
       0.41155854 0.49781507 -0.041711006 -0.08652632
0002c0 cb e0 42 3f 9b 92 8b 3e c6 64 07 bf 08 9f c0 3d
       0.76124257 0.2726029 -0.52888143 0.09405333
0002d0 9d be 85 be e9 5a be be fd 5c 95 bc c9 4a 28 bc
       -0.2612199 -0.37178734 -0.018232817 -0.010271736
0002e0 0a 07 81 bd f8 22 41 bd 92 d9 98 bd 91 ea 51 be
       -0.06300171 -0.04715249 -0.07463373 -0.20499636
0002f0 09 da 3e be be d5 ff bc d2 de 2b 3d e6 ef 37 be
       -0.18637861 -0.03122985 0.041960545 -0.17962608
000300 38 5c 20 3f 0c 57 39 3f 99 2e f1 bf 90 98 f6 3c
       0.62640715 0.7239845 -1.8842345 0.030102044
000310 3a ed e5 bd 64 db 56 bd 1a 6a ad 3d 5e 00 71 be
       -0.11226888 -0.05245532 0.08467503 -0.23535296
000320 b8 4e 45 bd 80 a8 5b 3c 3a 24 bf bc be e9 eb 3d
       -0.048170775 0.013406873 -0.023332704 0.11519192
000330 78 73 3a 3e 4f b9 b6 bc c2 9a b4 3d 72 82 3c 3c
       0.1820811 -0.022305159 0.0881858 0.01150571
000340 5c 0c 13 3d 17 4d 74 be 1a d5 3f be e1 c2 a7 3e
       0.03590046 -0.23857532 -0.18733636 0.32765868
000350 27 60 24 3e 8e 66 25 3e 67 3b c1 3d 50 ad 9c 3e
       0.16052304 0.16152403 0.09435158 0.30600977
000360 eb 15 90 3e b0 fa e8 bd 50 28 cc 3e b4 be be 3d
       0.28141722 -0.1137594 0.39874506 0.093137175
000370 c4 91 94 3d 4e 57 5d 3e 75 4b 86 3f cb 80 84 3e
       0.07254365 0.21615335 1.0491778 0.2587951
000380 84 64 74 be cd 8d 04 3d ff 7e bc 3e f2 3a 34 3f
       -0.23866469 0.032361794 0.3681564 0.70402443
000390 15 f5 48 3e fc 98 24 3f cf d9 17 3f e0 e2 aa 3e
       0.19624741 0.64295936 0.59316725 0.33376217
0003a0 b5 85 a8 3e b4 cb 1e 3f aa 37 d5 3e e2 6b 32 3f
       0.3291451 0.62029576 0.4164403 0.69695866
0003b0 23 5c d5 3e db 4f fb 3e 87 39 99 be 87 41 b9 be
       0.41671857 0.49084362 -0.29926702 -0.36182806

conv1.bias f4 [16]
000000 05 b4 9d bf e4 09 2c be 18 38 1d bf 2e 06 14 3e
       -1.2320563 -0.16800648 -0.6141372 0.14455482
000010 7a 84 fd be 75 28 78 bf d9 03 60 3e e0 ed 1e 3f
       -0.49515134 -0.9693673 0.21876468 0.6208172
000020 f9 c7 93 be fa d9 6c bf bd 82 a1 bf ad 71 d7 3e
       -0.28863505 -0.92520106 -1.2618023 0.42078915
000030 cd ca a2 be 75 50 92 be 0b 95 44 bc 5d a3 40 bf
       -0.3179535 -0.2857701 -0.011998425 -0.7524927

conv2.weight f4 [32, 16, 3]
000000 b7 96 36 bf 74 16 70 be 88 84 6e bf df 5f 7a bf
       -0.7132372 -0.23446065 -0.93170977 -0.9780254
000010 eb 91 47 c0 5d df d2 bf 5f b0 c2 be 72 91 7b bf
       -3.1182811 -1.6474415 -0.38025185 -0.98268807
000020 f6 92 3d 3f 40 08 ba 3e 4a 52 3f be f8 40 f1 bd
       0.7405237 0.3633442 -0.18683735 -0.1177997
000030 de 37 0a c0 e4 ac 12 be 33 94 80 c0 4e 3b 06 be
       -2.1596599 -0.14323765 -4.0180907 -0.1310856
000040 dc f8 d6 be c8 7b 5c bf 18 af fb be 49 bb eb 3e
       -0.4198674 -0.86126375 -0.49157023 0.46041325
000050 52 76 6b 3e b7 82 e1 3e c7 59 01 be 6f 6a 8a 3e
       0.22994354 0.4404504 -0.12631904 0.27034327
000060 59 c3 c2 bf 7b ac 03 3e 44 83 d1 3e 1e 21 d2 3d
       -1.5215865 0.12858765 0.4092046 0.10260223
000070 18 81 10 bf 43 bb 3a 3c aa d3 33 3f 9d 69 19 bf
       -0.5644698 0.011397186 0.7024485 -0.5992678
000080 77 66 cd be 11 7c 76 3e 9d 6a d3 3e 2b 60 22 3f
       -0.40117237 0.24070765 0.41292277 0.6342799
000090 26 d6 79 bd b8 d3 49 3e b4 fc be bc 0b eb 7c bb
       -0.060995243 0.1970967 -0.023313858 -0.0038592245
0000a0 aa a2 bd bc 5a 26 e9 ba 89 c3 83 bf 83 05 f8 be
       -0.023148853 -0.0017787919 -1.0294048 -0.48441705
0000b0 10 98 e5 be ea 4b 92 be 5c 95 7a 3e 3b 1d cd 3d
       -0.44842577 -0.28573543 0.24471039 0.10015341
0000c0 c7 ee 91 be 2c 13 59 bf 44 3b bb be d6 46 9c bd
       -0.28502485 -0.8479488 -0.36568654 -0.076306984
0000d0 ec f0 3e bf 71 22 d2 3e bb 36 06 3f 6d af 1a 3f
       -0.7458637 0.41041902 0.5242726 0.6042393
0000e0 2c 78 fc 3d 24 45 b3 be 63 b3 ea bd 1f 5f 29 3f
       0.123276085 -0.35013688 -0.114599966 0.6616077
0000f0 d6 81 37 3f bb 95 a2 be dd f9 98 bd 18 e5 f0 bf
       0.7168249 -0.3175486 -0.07469533 -1.8819914
000100 cb ac 3e 3f 9d 48 f0 be cb 99 e2 3e 33 66 6d bf
       0.7448241 -0.469304 0.4425796 -0.9273407
000110 46 2c 19 c0 27 20 29 bd dd 0e 5e 3e 35 84 e0 3d
       -2.3933272 -0.04129043 0.21685357 0.109627165
000120 56 6d d9 3e 51 74 31 3f 13 fc 04 bf 4f 75 8d be
       0.4246623 0.6931811 -0.51947135 -0.27628562
000130 3b c3 f8 bd b5 53 20 c0 12 85 c3 bf fd 4f 54 bf
       -0.12146612 -2.505109 -1.5274985 -0.8293455
000140 2c be 9d 3f 65 de 1a bd 7c 4f 29 3e 86 9d 1f 3b
       1.2323661 -0.03780975 0.16534227 0.0024355366
000150 15 2b a5 bc 68 8d 60 be b4 c9 10 bf b0 45 eb bb
       -0.020162145 -0.21928942 -0.56557775 -0.0071799383
000160 fc f8 ac 3b a3 5b 53 3d e9 96 d7 3e fa a8 86 3e
       0.0052787047 0.051601063 0.42107323 0.26300794
000170 da 47 44 bd f1 e5 01 bd a4 f1 1d bf be 9c c0 be
       -0.047920085 -0.03171343 -0.6169684 -0.37619585
000180 c2 d4 33 bf 30 ec 53 be 10 c8 9a bf 26 a5 01 c0
       -0.7024652 -0.20695567 -1.2092304 -2.0257049
000190 3c f6 b0 3e 83 1f 37 3c 1a 68 00 bf 6d 42 49 3f
       0.34562862 0.011176947 -0.50158846 0.7861698
0001a0 6e 3f f1 3d 68 6f 65 bf cc 05 16 3e 3b af 05 3f
       0.117796764 -0.8962312 0.14650649 0.52220505
0001b0 34 3f 2b 3d 2d 31 af be 71 50 ef 3b dd 54 b1 bd
       0.041808322 -0.34217206 0.0073032905 -0.086587645
0001c0 dd 1b d1 3d 27 68 f4 be 75 97 f9 3d fc e6 63 be
       0.102103926 -0.47735712 0.12187091 -0.22256082
0001d0 27 03 ec bf 58 90 5a 3e 09 e9 84 3c e8 56 03 3f
       -1.8438462 0.21344125 0.016224401 0.51304483
0001e0 47 f7 17 bf a9 21 0a 3f 21 b7 36 bf 10 e2 36 bf
       -0.5936169 0.5395761 -0.7137318 -0.71438694
0001f0 f5 69 7d 3c 3d 22 01 c0 69 68 13 bf b7 bb c3 3e
       0.015467157 -2.0177147 -0.5758119 0.38229153
000200 f5 d8 bd be 0e 3c 70 3d 05 9d 9c 3e 37 3e 94 3f
       -0.37079588 0.058651023 0.30588546 1.1581486
000210 ce 6d 8c bf 24 60 8d 3f ab eb d9 bf 66 9b 84 3d
       -1.097101 1.1044965 -1.7025045 0.064749524
000220 d7 e4 ce 3d 03 34 71 bd 81 5d 82 bd d5 88 42 bd
       0.101022415 -0.058887493 -0.06365491 -0.047493774
000230 ea ab ce 3d bd af a2 be c2 fd 60 be 1d c1 c1 3d
       0.10091384 -0.31774703 -0.21971801 0.094606616
000240 66 fa 0c be 09 bf 48 bf c8 bb 8f bf d9 30 c9 3e
       -0.13767394 -0.78416497 -1.1229181 0.3929508
000250 08 6e 5a 3e b6 ff e7 bf 63 63 8f 3e a7 8a 4c bf
       0.21331036 -1.8124912 0.28005514 -0.79899067
000260 e1 5e a7 bf c3 79 c2 bd 9d 05 79 3e d6 2f 4f bf
       -1.307583 -0.094958805 0.24318548 -0.80932367
000270 24 d4 b0 3d 64 d6 88 bf e8 c9 13 be 53 74 e5 be
       0.086342126 -1.0690427 -0.1443249 -0.4481531
000280 2f 29 b4 3e e2 58 97 be f2 4a ff be a0 36 95 be
       0.3518767 -0.2956 -0.49861866 -0.29143238
000290 3a 2a 95 bd 47 21 43 3f ca 88 05 3e a4 78 58 3e
       -0.07283445 0.7622265 0.13040462 0.21139771
0002a0 9d ef 1a bf 3a c4 b7 bf ee 21 00 3d 0d ae d1 be
       -0.6052187 -1.4356759 0.031282358 -0.40953103
0002b0 fc d4 4e 3f 6d aa 6d 3f 99 33 82 3f 02 1e 50 be
       0.8079374 0.92838174 1.0171996 -0.20323947
0002c0 d1 5c af 3e e8 5a a9 bd 09 78 b1 3e 1a 5e b6 3e
       0.342505 -0.08269292 0.34661892 0.3561867
0002d0 b3 70 6e 3d dd 8d 80 3f 36 d4 4d bc c9 8f 85 3d
       0.058212947 1.0043293 -0.012562802 0.065215655
0002e0 43 3b 0a be 0f 5e d8 bd 60 95 33 3f f7 4e f7 be
       -0.13499169 -0.10564815 0.70149803 -0.48302433
0002f0 a3 e9 8f be a5 3b 1e bf da d1 0d bf a7 13 e6 3d
       -0.28107938 -0.6180976 -0.55398333 0.11234217
000300 0d bf 1e be 52 0f f6 be 6c 7c 57 bf 04 2d 4a 3c
       -0.15502568 -0.48058563 -0.8417423 0.012339834
000310 fe 75 09 be de db ea 3e 2a e0 ac be f8 5d be be
       -0.13423917 0.4587087 -0.33764774 -0.37181067
000320 ca 7d 54 be b0 6c 99 3d 4f d6 95 be b5 b1 e7 3d
       -0.2075111 0.074914336 -0.29265067 0.11313192
000330 77 5c d3 be d4 27 e2 be 33 95 05 3f c6 21 5d c0
       -0.41281483 -0.4417101 0.52180785 -3.4551864
000340 6b 40 4a 3f d9 d4 29 c0 b9 9e b9 be 35 2d 39 3e
       0.79004544 -2.6536162 -0.36253908 0.18083651
000350 b1 b1 01 3e f5 26 22 bd 99 62 7f bf ef b6 c0 3e
       0.1266544 -0.039587934 -0.99759823 0.37639567
000360 64 f6 dc 3e 5c 95 25 3f 32 22 9f bd 77 7b 10 3f
       0.4315673 0.6468103 -0.07770194 0.5643839
000370 0f 5f 36 be a7 0a b1 be 80 b3 4a bf 57 b0 44 bf
       -0.178097 -0.3457844 -0.79180145 -0.76831573
000380 7d fc ad bf a0 66 75 3e 78 2b 99 3d 9f d6 63 3e
       -1.3592678 0.2396493 0.07478994 0.2224984
000390 88 2b 22 3f ac ee 0a bf 82 e1 f0 bd 35 56 54 3d
       0.63347673 -0.54270434 -0.11761762 0.051840026
0003a0 3b 0d e1 3d a1 2e 6b bb 52 c9 2a bf b8 7b f6 be
       0.10988852 -0.0035885947 -0.6671344 -0.48141265
0003b0 87 b7 45 3f 43 43 3a c0 06 67 6d bf 12 e4 a5 be
       0.77233166 -2.9103553 -0.92735326 -0.32400566
0003c0 e5 08 30 3f 42 bf 2e bd 88 5e 86 bf a3 c3 f1 bd
       0.6876357 -0.042662866 -1.0497599 -0.11804893
0003d0 22 fe 36 3d de 5c 96 bd af 44 ef be 08 6e c9 3e
       0.044675954 -0.07341932 -0.4673209 0.3934176
0003e0 99 39 28 3e f4 2a 41 3e 3d 17 60 3e b3 d7 71 be
       0.16428222 0.18864042 0.21883865 -0.23617439
0003f0 d9 65 c9 be 35 65 21 bd 7d a2 a1 be 8d 2c f1 3e
       -0.39335516 -0.03940316 -0.3156928 0.47104302

conv2.bias f4 [32]
000000 2e 76 40 3f ec b7 49 3f 96 1c 4d 3f 2b 1c 3c be
       0.7518033 0.7879627 0.80121744 -0.1837012
000010 6f d8 6a 3e 96 e3 3f 3f ac e1 67 be c6 26 60 bf
       0.22934125 0.74956644 -0.2264468 -0.87559164
000020 64 8b a5 3d c1 59 31 be 15 dc 1e bf 88 df e1 3d
       0.08083227 -0.17319395 -0.6205457 0.11028963
000030 96 36 94 3e 73 12 13 bf e1 cc 39 3e 4e 2c d6 be
       0.28947896 -0.57450026 0.18144561 -0.41830677
000040 31 0d f7 3e a6 10 14 be 4b 29 38 be 72 a0 12 bf
       0.48252252 -0.14459476 -0.17984502 -0.5727607
000050 0c 5a 3b bd bd b6 07 3f fe 8f 08 3e 2c f0 02 3f
       -0.045740172 0.5301321 0.13336179 0.51147723
000060 d6 a5 b7 bf 54 b8 31 3d f1 ec d0 bd 3b 61 ba be
       -1.4347484 0.04338868 -0.10201443 -0.36402306
000070 58 75 ec be 30 8a f1 bf 8a d7 1f 3e e4 35 d7 3e
       -0.46183276 -1.8870296 0.15609565 0.42033303

fc1.weight f4 [64, 192]
000000 62 41 a0 bd 1e ae 67 bc f8 a9 87 bc 9b 3c 28 bd
       -0.07824971 -0.014140634 -0.01656054 -0.041073423
000010 2d 4d 0f 3d a6 4a 8a bd 36 8a 93 3c c3 6b cf 3c
       0.03498571 -0.06752519 0.01801024 0.02531994
000020 9a bf 8b bd ea a3 ee ba 03 16 02 bd 1a 0c 88 bc
       -0.068236545 -0.0018206809 -0.031759273 -0.016607333
000030 31 ec fb bd 3f bd 89 3b d0 79 2a bc 22 7e 01 bc
       -0.12300909 0.004203468 -0.010405019 -0.007903608
000040 ed 2d f9 bd 70 ad 41 bd 43 11 09 3c 59 a5 9a bd
       -0.12166963 -0.047284544 0.008365932 -0.07551069
000050 be 9b 3d bd 9a 27 65 3c bb 30 03 bd 7c 4e d0 3c
       -0.046291105 0.0139864925 -0.032028895 0.02542805
000060 e7 c1 5f bd 6d 67 b8 bc b1 fe 4a bd fd 89 19 3d
       -0.05462828 -0.022510255 -0.0495593 0.03748511
000070 2f b6 37 3d 1f 84 9c bd dc 75 a7 3c c2 3c 48 3d
       0.04485148 -0.076423876 0.020441942 0.04888607
000080 62 c0 26 bd aa 6c af bd f6 c3 8c bd 55 ad c1 bc
       -0.040710814 -0.08565648 -0.06873314 -0.023642221
000090 50 76 e2 3b 1c 80 6d 3d c6 70 33 3d 44 f8 04 bd
       0.0069110766 0.057983503 0.04380872 -0.032463327
0000a0 00 00 7a 3b f8 2b 4d 3d 28 04 b9 bc 48 d2 fa b9
       0.0038146973 0.05009076 -0.02258499 -0.00047840388
0000b0 be 79 c5 bc db 52 32 bd e3 b6 69 bd a4 0b d5 ba
       -0.024105903 -0.04353605 -0.05705918 -0.001625408
0000c0 9e a7 01 bd b9 52 2f 3d 37 96 04 3d 9c 16 52 3d
       -0.031653993 0.0428035 0.03236982 0.051291093
0000d0 56 bd 74 bc 2f 65 70 bd 63 dc a3 3c 08 54 87 bd
       -0.014937719 -0.058690246 0.02000255 -0.066078246
0000e0 aa bf 17 bc 2d e0 a6 bd 62 83 4b bc 23 24 61 bd
       -0.009262005 -0.08148227 -0.012421461 -0.054966103
0000f0 4a 8a cb ba 9c 62 bc bd 3d d9 3e 3c ff 25 03 bd
       -0.0015528884 -0.09198496 0.011648473 -0.032018658
000100 20 fb b4 bd fc 20 aa bd 37 77 a1 3c 0d b5 8a bd
       -0.08836961 -0.083070725 0.019710166 -0.06772814
000110 7c 1f 70 3d f9 16 5a bc 5a ae 6f 3d b5 96 dd bc
       0.058623776 -0.013311141 0.058515884 -0.027049402
000120 30 dd 55 bd 76 e6 9b bd 52 42 74 bd 19 48 9e bd
       -0.052212894 -0.07612316 -0.05963356 -0.07728595
000130 ed 32 09 bd 19 06 de bd 12 77 e8 bc 3f 71 9a bd
       -0.033495832 -0.10841007 -0.02837709 -0.07541131
000140 5d 22 2d bd 7c 85 cc 3c 56 a5 44 bd cb 51 98 3d
       -0.0422691 0.024965994 -0.04800924 0.07437476
000150 51 50 6c bd 45 2d c1 bb 71 55 52 bd de ae 47 3d
       -0.057693783 -0.005895289 -0.051351015 0.04875075
000160 bd fa 8d bd 71 69 5c bd 65 2b b9 bc 76 a4 38 bc
       -0.0693259 -0.053811494 -0.0226037 -0.011269679
000170 30 ba 1a bd e5 a1 95 bd 63 bf 47 3d 9d 22 72 bd
       -0.03777522 -0.073062696 0.048766505 -0.05911504
000180 90 3e 43 bd 5e 28 44 bc 9a 94 1f 3d 87 ca 44 bd
       -0.047667086 -0.011972515 0.038960077 -0.048044708
000190 a2 c1 d0 bc a6 d9 8a bd 90 a5 19 3c c8 c0 34 3c
       -0.025482956 -0.067797944 0.009377852 0.011032291
0001a0 00 41 84 3a e2 e7 89 3d 38 22 64 bc 00 f8 28 b8
       0.0010090172 0.06733681 -0.013924174 -4.028529e-05
0001b0 2e 53 09 3d 2a 42 18 3d a3 fe 83 bd 35 8d 8f bd
       0.033526592 0.037172474 -0.064450525 -0.07009355
0001c0 1e 7a 2f bd e8 eb 71 3d 75 ab 52 bd ff 77 ae 3c
       -0.04284107 0.05906287 -0.051433045 0.021297453
0001d0 17 a0 94 3c dd 49 ef bc ad 73 b4 bd 76 d4 cf bc
       0.018142743 -0.029210025 -0.08811126 -0.025369864
0001e0 67 58 91 bc 6b af 32 bd 61 0c 1b bc 9b e6 62 3d
       -0.017742349 -0.043624323 -0.009463401 0.055395704
0001f0 8e 00 a5 3c be 42 6c 3b 0d 4a b5 bc b3 ea 89 3d
       0.020141866 0.0036050524 -0.022130037 0.067342184
000200 ce 65 59 bc 71 6f d8 3c 83 36 11 3d 27 0f 6e bd
       -0.013268901 0.026420327 0.035452377 -0.05811992
000210 ef 63 67 bd 7f 16 eb 3c e8 e2 1b bd 21 49 19 3b
       -0.05649179 0.02869725 -0.03805819 0.0023389535
000220 aa d0 d0 3c 19 9d 5b 3c 88 59 0c bd d5 56 ab bd
       0.025490124 0.013404154 -0.03426507 -0.08366171
000230 32 33 a9 bc 87 f5 f6 bc 03 38 84 3c 7e 9f c9 bd
       -0.020654295 -0.030146373 0.01613999 -0.09844874
000240 c1 a8 85 bc ec 47 38 bd 1f d9 ce bd bf a2 ac bc
       -0.01631582 -0.044990465 -0.10100006 -0.021073697
000250 64 66 29 bd 9e 16 a6 bd 55 45 62 3d 53 af 73 bc
       -0.041357413 -0.08109783 0.0552419 -0.0148733435
000260 f2 41 82 bd 3a 77 7e bd 0b e0 77 3c da 4c 11 3d
       -0.06360234 -0.062125422 0.0151291 0.035473682
000270 6f 1c 06 be d1 58 76 bc 4e ea 8f bd 96 94 ba bc
       -0.13096784 -0.015035824 -0.07027112 -0.02277593
000280 fb e8 99 bd b7 93 2c bd bf 50 6b bd dd cb 00 bd
       -0.075151406 -0.04213306 -0.057450052 -0.03144442
000290 66 30 5f 3d 5d 15 35 bd f1 69 21 3c 51 84 82 bd
       0.054489516 -0.044209827 0.009851919 -0.063728936
0002a0 70 1c 63 bd 9b aa 94 bc ff 9b 94 bd dc 5f cc 3b
       -0.055447042 -0.018147757 -0.072563164 0.0062370133
0002b0 c4 f5 83 bd 51 58 25 bd 97 51 36 bd c0 f0 4d bc
       -0.064433604 -0.04036743 -0.044511404 -0.012569606
0002c0 00 90 4f bb 75 9d 8b bd b5 18 71 bd 94 54 3c bc
       -0.0031671524 -0.06817142 -0.058861453 -0.011494774
0002d0 b7 ed 6c bd 19 c1 83 bd 87 3e d9 bc b1 8b 81 bd
       -0.05784389 -0.06433315 -0.026519073 -0.06325472
0002e0 d7 28 62 bd 0c a4 4e bd 64 3d 98 bd 55 5d db 3c
       -0.05521473 -0.050449416 -0.07433584 0.026777903
0002f0 c7 d0 f3 ba b5 28 90 bb 4e 08 9e bd 8a 72 62 bd
       -0.0018601649 -0.004399384 -0.07716428 -0.055285014
000300 83 c0 f6 3e 67 ad f4 bc 98 45 ed 3e 02 cc c5 bf
       0.4819375 -0.02986784 0.46342158 -1.5452883
000310 4a 7a a2 3f 41 08 9a 3d 63 1e 8a be 97 5f b1 3e
       1.269357 0.075211056 -0.26976308 0.34643242
000320 f0 d5 88 3d d7 68 2f 3f af da 61 3e 02 6d d5 be
       0.0668143 0.6851935 0.22056077 -0.4168473
000330 f9 e6 a4 3e 03 ab 14 3f ed f7 bc 3e 06 4f 11 be
       0.32207468 0.58073443 0.36907902 -0.14190301
000340 29 3b 1c 3f 7b 0d 56 3e 45 e9 20 bf c8 08 8c be
       0.6102777 0.2090358 -0.6285594 -0.2735045
000350 e4 a7 d2 be 9b d5 ce 3d 6d 23 93 be 90 77 22 be
       -0.41143715 0.10099336 -0.28737965 -0.15865922
000360 32 bf 97 bd 8f 40 a1 bf 20 4b b8 be dd e8 b7 bf
       -0.074095145 -1.2597827 -0.35994816 -1.4367939
000370 06 ae 25 be 0c db 18 3f fc 1a 72 be e9 71 8e 3e
       -0.16179666 0.5970924 -0.23643106 0.27821282
000380 db 6a d7 3e ea dd f0 be 1b e5 7e 3e 4a f2 43 bf
       0.42073712 -0.47044307 0.24892084 -0.7654158
000390 54 6e 5a 3d a8 c0 0d bd 1e 58 b4 bc 49 4d 0e bd
       0.053327873 -0.03460756 -0.022014674 -0.034741674
0003a0 28 1f dd 3c 5e f7 40 3d 6d 95 33 bf 55 52 96 be
       0.026992396 0.047110908 -0.7014988 -0.2935969
0003b0 df 8a 94 bd 84 d5 44 bf b6 23 bb 3b 33 38 93 be
       -0.0725305 -0.768883 0.005711044 -0.28753814
0003c0 7e 68 0f bf 61 14 7f 3e 19 8d 60 3f 19 7a 9c be
       -0.5601882 0.24910118 0.877153 -0.30561903
0003d0 8a c4 7a 3e 55 79 3a 3f 00 d0 a1 37 28 20 b6 bc
       0.24489036 0.7284139 1.9289553e-05 -0.02223213
0003e0 70 68 f6 bb b0 54 50 3d 73 a3 20 bd f0 5b 52 3d
       -0.007519774 0.050862014 -0.039218377 0.05135721
0003f0 1c 2e 31 be 39 de 4e 3e fe 26 b9 3b 14 d7 73 be
       -0.17302746 0.20201959 0.0056504 -0.23812515

fc1.bias f4 [64]
000000 69 42 3a be b1 4a 8a bf fe 0e 12 be 48 07 26 bf
       -0.18189396 -1.0804044 -0.14263532 -0.6485486
000010 1b 1e 70 be 2b 6d 2e bf 19 6a 1e bf 46 30 58 bf
       -0.23448984 -0.6813533 -0.6188064 -0.8444866
000020 1e a7 1d bf aa 59 53 bf 2e 95 fa be 0a 64 be 3e
       -0.61583126 -0.8255869 -0.4894194 0.371857
000030 f6 b9 36 be 92 d7 1c bf 07 1e 90 3e 42 be d0 bf
       -0.17844376 -0.61266434 0.2814791 -1.6308062
000040 e0 b0 56 bf a1 33 02 be b1 95 5b be e3 9e 4b bf
       -0.8386364 -0.12715007 -0.21443821 -0.79539317
000050 ec d8 d4 3e 51 9c ec bf 71 2f 10 be b9 a0 c1 bc
       0.41571748 -1.8485204 -0.14080597 -0.023636209
000060 ad 20 0c 3c b9 67 ae 3e a6 b4 3d be af 68 97 bd
       0.008552712 0.3406351 -0.18525943 -0.07393014
000070 4e 92 2d bf 49 5a 7c bf ea c4 86 bf 2d 95 cc bd
       -0.6780137 -0.98575264 -1.0528843 -0.099893905
000080 bc e9 15 3d 76 07 61 3e 0d 81 10 bd 6b 06 09 3e
       0.03659986 0.21975502 -0.035279322 0.13381355
000090 d1 e0 57 bf b5 88 00 bd 78 ce fc be 07 52 39 3e
       -0.8432742 -0.031380374 -0.49376273 0.18097697
0000a0 4b 9c 3c be 23 e8 ac be 38 54 22 bf 4f 1b 96 bf
       -0.18418996 -0.33770856 -0.6340976 -1.1727084
0000b0 f2 ce 6a bf d5 84 76 3e f3 05 95 3d 7a 16 86 bf
       -0.91722023 0.24074109 0.07276525 -1.0475609
0000c0 5b 21 29 bf 56 fa b6 bd cc 61 cc bd 4d 7c c3 be
       -0.6606652 -0.089344665 -0.09979591 -0.3818077
0000d0 fd a1 1e bf d4 f9 f0 be 92 0e 2d 3e 12 4f 05 be
       -0.61965925 -0.47065604 0.1690009 -0.13018444
0000e0 16 95 db be 37 43 9b bf ba cb 04 be 8d 4b 39 bf
       -0.4288718 -1.2129887 -0.1296834 -0.72380906
0000f0 39 19 2b bf 78 77 2c bf e6 28 dc bd 6c 0d 5a be
       -0.6683536 -0.67369795 -0.10749988 -0.21294183

fc2.weight f4 [3, 64]
000000 7e 97 e2 3c bf 2d db bf 08 2d 82 3d 9e 74 22 bf
       0.027660128 -1.7123336 0.06356245 -0.63459194
000010 97 08 39 be 12 44 74 bf 24 97 9c be 41 af 1e 40
       -0.18069683 -0.9541637 -0.3058406 2.4794466
000020 8e b2 b0 be e5 c5 9d 3f c5 c7 43 3f 01 e0 e4 3e
       -0.34511226 1.2326018 0.764767 0.4470215
000030 d5 b1 d3 bc 03 c6 5f bf 20 73 0e 3f a1 b2 ac 3f
       -0.025841633 -0.87411517 0.55644417 1.3492013
000040 79 b2 0d c0 be 4f f4 bd 82 ab 0e 40 3f 9d b1 3f
       -2.214018 -0.11929272 2.229218 1.3876113
000050 0b 77 bb be 60 41 ee bf 5e 49 37 be c3 8a dd 3e
       -0.3661426 -1.8613701 -0.17899081 0.4326993
000060 f4 3c 88 3e de 30 d2 bd 27 73 aa 3d 30 ad 43 3d
       0.26609004 -0.10263227 0.08322745 0.047772586
000070 9b 43 01 bf 24 a8 54 bf a6 83 96 3f 89 0d f1 3e
       -0.5049378 -0.8306906 1.1758926 0.4708064
000080 86 87 99 3e d7 7e 67 3e 55 c5 f5 3e 9d 80 af bf
       0.2998621 0.2260698 0.48002115 -1.3711125
000090 e2 9a 16 40 cf 58 4b 3f ed d3 3a 3f 67 9a 48 bd
       2.3532033 0.79432386 0.72979623 -0.048975375
0000a0 fd a6 56 bf 9a ac 55 bf 17 88 16 c0 af b4 85 bf
       -0.83848554 -0.83466494 -2.3520563 -1.0445765
0000b0 cc 22 bb 3f bd 72 d1 3e f7 f6 1d bf 3a b7 95 3f
       1.4619994 0.4090785 -0.61704963 1.1696541
0000c0 35 50 7d bf 6c 16 e6 3c 02 c5 c0 be 56 7d a4 3f
       -0.9895051 0.028086863 -0.37650305 1.285075
0000d0 66 2c 70 3f a8 3e 01 3f 7f ab 8f 3e eb dc 5c bb
       0.93817747 0.5048623 0.2806053 -0.0033701013
0000e0 c1 6d 5b bf 48 6c ea bf 5e 96 b3 3c 71 93 8f bf
       -0.85714346 -1.8314295 0.021922287 -1.121687
0000f0 94 2b 6a 3f 2d 04 bd 3e 24 18 1f be eb 24 dc be
       0.91472745 0.36917248 -0.15536553 -0.42996916
000100 02 74 77 bd 62 cc 05 c1 10 ef 1b be 51 47 ea c0
       -0.060413368 -8.362398 -0.15227914 -7.3212056
000110 35 67 93 3e c4 a6 3d bd 73 31 b3 3f 4b 8b da c0
       0.28789678 -0.04630162 1.3999466 -6.8295035
000120 c1 75 58 c0 72 43 06 c1 df f9 a0 c0 63 54 52 c0
       -3.3821871 -8.391466 -5.030502 -3.2864006
000130 1c 99 8e be f6 db 90 c1 ec 57 10 c0 6f da ea 3f
       -0.27851188 -18.107403 -2.2553663 1.8347911
000140 2d 50 1d c1 08 2e e6 bf db db 04 c0 5e 19 f4 c0
       -9.832074 -1.7982798 -2.075919 -7.6280966
000150 98 67 1f 3d a6 97 d0 c0 e6 fe 85 be b9 8d e0 c0
       0.038917154 -6.518512 -0.26171035 -7.0173
000160 d5 6f 5a c0 6e 3d bc c0 66 1d b2 bd 69 2d 71 3d
       -3.4130757 -5.8824987 -0.086970136 0.058881197
000170 d8 d4 c0 c0 4b 8d 1a c1 7e 92 fa c0 0e 09 72 c0
       -6.025982 -9.659495 -7.8303823 -3.7818027
000180 4d d3 37 be fe 5f a9 c0 ac 33 89 3f 97 96 61 c0
       -0.17951699 -5.292968 1.0718894 -3.5248163
000190 ff a6 bc c0 67 df 35 40 ba e2 49 bf 28 d2 5f c0
       -5.8953853 2.8417604 -0.7886158 -3.497202
0001a0 5d f4 81 3f 8b 43 d4 c0 5c f5 8c c0 42 e6 f7 c0
       1.0152699 -6.633245 -4.404951 -7.7468576
0001b0 66 74 87 c0 5c ce 15 c0 d7 89 b3 be 38 f6 26 c1
       -4.232959 -2.3407202 -0.350661 -10.435112
0001c0 10 b6 bc c0 e0 d9 d3 bc dd 0d 1b c1 dd 2c 25 c1
       -5.8972244 -0.025860727 -9.690885 -10.323453
0001d0 26 42 62 c1 0b 38 e2 c0 54 7f 87 bf c4 f8 f0 3c
       -14.1411495 -7.069341 -1.0585732 0.029415496
0001e0 c2 23 0a bf a8 31 8f c0 ef a9 d5 bd 7d 4a 6b c0
       -0.5396081 -4.4748116 -0.10432803 -3.6764214
0001f0 95 7e 98 c0 47 f6 9c c0 62 01 0d c0 5e 96 94 c0
       -4.765452 -4.905063 -2.2032094 -4.6433554
000200 59 19 15 3c 59 34 c8 3f 90 5a 79 3d 6c d6 44 3f
       0.009100282 1.5640975 0.060877383 0.7688968
000210 21 b2 9b 3e af 37 5f 3f 91 06 dc 3e 31 bb 12 c0
       0.3040934 0.8719434 0.4297376 -2.2926753
000220 86 30 08 3f 66 d3 aa bf fe 53 47 bf 2b 4a db bd
       0.5319904 -1.3345764 -0.77862537 -0.10707506
000230 a2 95 e2 bd e4 01 8a 3f 8a 6c dc be 99 f0 e3 bf
       -0.110636964 1.0781827 -0.4305156 -1.78078
000240 3d a2 03 40 aa 3b b0 3e 1b fc 12 c0 16 15 c6 bf
       2.0567772 0.3442052 -2.2966373 -1.5475185
000250 9c ce f5 3e 97 17 fd 3f c5 7a 37 3e 08 48 9c be
       0.48009193 1.9772824 0.17917927 -0.30523705
000260 e7 7d 49 be d5 b6 62 3e 38 3a c6 3d 18 6f 1a 3d
       -0.19676934 0.22140057 0.09679073 0.037703604
000270 85 3c 11 3f 13 a0 43 3f 1c db a7 bf 80 1a 96 be
       0.5673297 0.7641613 -1.3113742 -0.29317093
000280 4b d2 a5 be 31 ca 0e 3e 56 e9 f1 be d3 3c bf 3f
       -0.32387003 0.13944317 -0.47248334 1.4940437
000290 dd c1 14 c0 ab 80 56 bf 05 37 56 bf 13 1b bb 3e
       -2.3243325 -0.8379008 -0.83677703 0.36544093
0002a0 85 88 12 3f ac 13 23 3f 71 07 0b 40 08 2d 86 3f
       0.5723956 0.6370189 2.1723292 1.0482492
0002b0 91 84 b9 bf 4c 60 67 be 47 cd 05 3f 03 bf 9e bf
       -1.4493581 -0.22595328 0.52266353 -1.2402042
0002c0 e0 36 5d 3f 22 1b 40 3d 4f d2 ff 3e 3d 1b a7 bf
       0.8641186 0.046900876 0.4996514 -1.3055187
0002d0 88 f9 78 bf 2c 37 d8 be 46 52 3b be 56 6a 54 bd
       -0.97255754 -0.42229593 -0.18293104 -0.051859222
0002e0 63 f6 31 3f c2 5c e1 3f 69 8c d6 3c 46 92 7a 3f
       0.6951658 1.7606432 0.02619 0.97879446
0002f0 16 ec 6b bf b0 fd ea bd f1 a5 f2 3e ef 93 31 3f
       -0.92157114 -0.11474168 0.47392228 0.69366354

fc2.bias f4 [3]
000000 1b f1 01 bd 9f 70 9c 3f 86 51 f4 3d
       -0.031724077 1.2221869 0.11929612
