cnn_model.pt (torch, 224472 bytes, 8 tensors)

conv1.weight f4 [16, 5, 3]
-0.2241884 0.017623598 0.14813581 0.09993799 0.087631136 -0.002171726 -0.15205385 -0.020078074
0.014873823 0.18510272 -0.13702989 -0.018805096 -0.102701075 0.04378438 -0.22828595 0.053195924
0.32751033 0.22191036 0.011380658 0.21794988 -0.0684981 -0.011231904 0.3180892 0.10790498
0.31580347 0.17076504 0.119976826 -0.12794639 -0.51010436 0.9425663 -0.08113667 0.015939366
0.18829606 0.29157212 -0.12033499 -0.071710445 0.19563739 -0.14856252 0.086429425 -0.03964323
-0.08950457 0.06511624 -0.35038513 0.079596624 1.2945577 -0.10398507 0.08910485 -0.089029215
-0.15631396 -0.23401956 0.15293488 -0.27438435 -0.29492313 -0.08481784 0.06565904 -0.018078182
-0.110628545 -0.4048442 -1.0607963 0.68729955 -0.036075853 -0.090278715 0.0065627606 -0.088459514
0.1949095 0.026649455 -0.09745695 -0.12238971 0.24424137 0.17061074 -0.077838756 0.29351664
-0.8727386 0.29024652 0.5388035 -0.026596718 0.13323759 -0.033233896 0.35685846 0.3155861
0.071431704 -0.088354096 0.22534288 0.06492697 -0.09327133 0.058728885 0.07435516 -0.94855326
-0.764215 0.7835862 -0.17730206 0.039125126 -0.0637252 0.07172273 0.032552056 -0.025332985
-0.21369989 0.119697444 0.12553385 -0.034704477 0.02400145 0.0711007 -0.8021925 0.56018054
0.1432858 -0.007305997 0.07175945 -0.049658947 -0.24991731 -0.02750177 0.20173553 -0.13112599
-0.06601812 0.047592375 -0.26200554 -0.05765696 0.23897901 -1.4039934 -1.209695 0.5865492
0.23536283 0.1410896 0.00773654 0.18812153 -0.026345793 -0.10599695 -0.22330333 -0.13645872
-0.19070223 -0.12060691 0.030409636 0.099674314 -0.46485016 -0.6545916 -0.039457142 -0.15457794
0.28249013 0.025376044 0.024085434 -0.14287877 0.024830667 0.26227516 -0.0118379 -0.10120783
0.049887255 -0.10219139 0.11864943 -1.0081253 0.70824236 0.7799017 -0.17323641 0.1533527
-0.08019369 -0.03544235 0.15556225 0.0036842816 0.08456206 -0.1993659 -0.0026896384 0.11183912
-0.06375367 0.057132285 -0.02039411 -0.1289013 -0.22193046 -0.031830728 -0.1092757 -0.0071097384
0.07684632 0.34727848 0.37263194 0.3473637 0.12872492 0.13185637 0.1377131 0.3425577
0.3149543 0.3656136 0.73188585 -0.7783662 0.12133502 0.2952347 -0.164377 -0.11182134
-0.030158767 0.26330236 -0.03877182 -0.11331725 -0.08366603 0.09631978 0.091566816 0.2441584
-0.64572376 1.0323523 -0.024801258 -0.15529096 -0.019079903 -0.060416758 0.03662978 -0.17716984
-0.08689467 0.15523136 0.056613315 -0.15423977 0.066510625 -0.26313972 -0.034439888 1.152121
-0.77768785 -0.33360463 -0.18756367 0.032913566 0.016427761 -0.13475424 0.1549376 0.26227188
-0.056495056 0.16357346 -0.1328378 0.19612072 0.22911032 0.3085241 0.71063817 -0.2648262
-0.6692079 0.14739811 -0.1614997 0.35378602 -0.15658535 0.006909409 -0.026420526 -0.03151479
-0.09618394 0.35155782 0.18092267 0.34425697 -0.013090701 0.6802685 0.43944892 0.013968372
00000000: a591 65be 5d5f 903c eab0 173e 4aac cc3d
00000010: f477 b33d 8453 0ebb 01b4 1bbe c67a a4bc
00000020: 56b1 733c 918b 3d3e 9051 0cbe 250d 9abc
00000030: f154 d2bd 4057 333d cbc3 69be f8e3 593d
00000040: 6faf a73e 783c 633e f075 3a3c 412e 5f3e
00000050: bb48 8cbd 0506 38bc 96dc a23e 49fd dc3d
00000060: feb0 a13e 08dd 2e3e 69b6 f53d 6104 03be
00000070: 3396 02bf 064c 713f fc2a a6bd 4693 823c
00000080: afd0 403e f148 953e 3172 f6bd eddc 92bd
00000090: 2b55 483e c620 18be e901 b13d f160 22bd
000000a0: 2c4e b7bd aa5b 853d ae65 b3be 8e03 a33d
000000b0: 11b4 a53f 20f6 d4bd 9b7c b63d f354 b6bd
000000c0: c410 20be d3a2 6fbe f69a 1c3e 1b7c 8cbe
000000d0: 2a00 97be fab4 adbd 3f78 863d b218 94bc
000000e0: 3891 e2bd bd47 cfbe 2cc8 87bf ddf2 2f3f
000000f0: 46c4 13bd 0ce4 b8bd 6d0c d73b 432a b5bd
00000100: 5b96 473e f54f da3c 8297 c7bd 75a7 fabd
00000110: 691a 7a3e 95b4 2e3e ed69 9fbd d047 963e
00000120: cc6b 5fbf 319b 943e 07ef 093f 5ce1 d9bc
00000130: 6f6f 083e 4420 08bd 27b6 b63e 8094 a13e
00000140: c94a 923d fef2 b4bd 49c0 663e 6ef8 843d
00000150: 0a05 bfbd b38d 703d 8547 983d 63d4 72bf
00000160: 98a3 43bf 1b99 483f ac8e 35be ab41 203d
00000170: 5c82 82bd 5ee3 923d 4e55 053d 1f87 cfbc
00000180: 25d4 5abe ef23 f53d f28b 003e 4826 0ebd
00000190: b09e c43c 3e9d 913d 7d5c 4dbf fe67 0f3f
000001a0: 83b9 123e 2567 efbb 9ef6 923d 2e67 4bbd
000001b0: 53ea 7fbe 644b e1bc c293 4e3e e445 06be
000001c0: 8234 87bd 39f0 423d 9725 86be b429 6cbd
000001d0: eab6 743e 0eb6 b3bf 49d7 9abf 1728 163f
000001e0: f402 713e cb79 103e cd82 fd3b eea2 403e
000001f0: 22d3 d7bc ee14 d9bd a1a9 64be d6bb 0bbe
00000200: 7247 43be c100 f7bd a11d f93c 0c22 cc3d
00000210: d700 eebe 5193 27bf d09d 21bd ae49 1ebe
00000220: 8ca2 903e 6ce1 cf3c d14e c53c d04e 12be
00000230: af69 cb3c ee48 863e c0f3 41bc 0d46 cfbd
00000240: 9456 4c3d b849 d1bd 79fe f23d 400a 81bf
00000250: 5f4f 353f a3a7 473f e364 31be 7d08 1d3e
00000260: 973c a4bd ff2b 11bd b64b 1f3e fd73 713b
00000270: e02e ad3d 9326 4cbe a544 30bb e90b e53d
00000280: 4991 82bd 8b03 6a3d 8c11 a7bc b4fe 03be
00000290: bd41 63be f060 02bd f0cb dfbd cff8 e8bb
000002a0: 9a61 9d3d 7cce b13e 9dc9 be3e a8d9 b13e
000002b0: 77d0 033e 5b05 073e aa04 0d3e b963 af3e
000002c0: b141 a13e b531 bb3e df5c 3b3f 0243 47bf
000002d0: 7f7e f83d 0129 973e 7252 28be 9602 e5bd
000002e0: 850f f7bc 91cf 863e 33cf 1ebd e012 e8bd
000002f0: 1859 abbd 4e43 c53d 6287 bb3d a904 7a3e
00000300: 274e 25bf 1f24 843f 022c cbbc 9804 1fbe
00000310: 754d 9cbc 9077 77bd 1c09 163d 036c 35be
00000320: d5f5 b1bd f8f4 1e3e 5de3 673d 08f1 1dbe
00000330: b936 883d 40ba 86be d710 0dbd b378 933f
00000340: 8d16 47bf 3ace aabe b110 40be 60d0 063d
00000350: 8393 863c 04fd 09be f6a7 1e3e 8048 863e
00000360: 5c67 67bd cd7f 273e a206 08be dfd3 483e
00000370: e59b 6a3e dff6 9d3e 62ec 353f 4d97 87be
00000380: 3551 2bbf 88ef 163e 2d60 25be 7123 b53e
00000390: e957 20be 5368 e23b dc6f d8bc a715 01bd
000003a0: 16fc c4bd 63ff b33e cb43 393e 7342 b03e
000003b0: 617a 56bc 1426 2e3f 73ff e03e 99db 643c

conv1.bias f4 [16]
-0.28797594 -0.38752845 0.013432637 0.080997735 -0.12700063 -0.25115886 -0.1427776 0.4636965
-0.6761498 -0.47841874 -0.36110944 -0.44350824 0.043664172 -0.4176637 -0.42508727 -0.7578423
00000000: 9571 93be 216a c6be 9014 5c3c 24e2 a53d
00000010: 740c 02be e597 80be 4b34 12be a169 ed3e
00000020: 2718 2dbf 4df3 f4be 56e3 b8be 8313 e3be
00000030: 34d9 323d 04d8 d5be 0aa5 d9be f401 42bf

conv2.weight f4 [32, 16, 3]
0.124848 -0.07105568 -0.12266433 -0.8388478 0.32990795 0.10586884 -0.81680757 0.25762394
-0.03510864 -0.23989242 0.3971038 -0.7805345 -0.72529596 -0.020808792 0.0152282575 -0.38076127
0.43263394 0.26667234 -0.35792795 -0.26370066 0.10607158 -0.1616447 0.013447261 -0.7594825
0.07255856 -0.66819155 -0.24411711 -0.6703952 -0.32681105 0.15804833 0.22259876 -0.114537
-0.0764985 -0.0848963 -0.46223164 -0.6867184 -0.13749146 -0.807503 0.31167296 -0.49659687
-0.09349729 -0.54477465 -0.45560604 -0.059110932 -0.29241914 -0.28862935 -0.70124197 -0.6864411
0.16967778 -0.06091075 -0.03236327 0.44329444 -0.33562365 -0.14084707 -0.42349717 -0.9035466
0.04790214 -0.31882876 -0.06313683 0.23001547 0.15252052 0.011273779 -0.29685888 0.29103082
-0.09662076 -0.24622382 0.015394969 0.17504482 -0.079901025 0.37534043 -0.073093355 -0.033560712
0.02936001 -0.096731484 -0.14574288 0.20696695 0.50593543 -0.29810253 0.066182196 0.059777386
-0.16378048 -0.2118368 0.2691987 0.11594029 0.23737642 0.32498577 -0.35113856 -0.13032287
0.3734414 -0.50671935 -0.16365701 -0.18223438 -0.49615544 -0.77896655 -0.5093288 -0.45699486
0.055438016 0.025372839 0.05815082 -0.20751403 -0.06834154 -0.5845382 -0.13616955 -0.023159228
-0.8651381 0.23687483 -0.25157392 0.01929114 -0.13842787 0.33294207 -0.15727293 0.3726611
0.30168253 -0.5869471 -0.47501934 0.21425223 -0.028157478 0.26333785 -0.008517464 -0.13364214
-0.09341354 -0.2816677 -0.32651228 -0.5263832 0.249245 -0.3927946 0.017412765 0.1287745
0.07568814 -0.39877543 -0.61071414 0.27349374 -0.21529911 -0.04347735 0.19979367 -0.7611769
-0.19394901 -0.03910388 -0.18381381 0.013062538 -0.10191681 -0.054085914 -0.20079164 -0.08691336
0.08319128 -0.03285806 -0.12655398 -0.45878178 -0.5435604 -0.32146788 -0.5838339 0.17438708
-0.23312387 0.050983753 -0.07729461 -0.36563012 -0.6391748 0.5199948 -0.22671618 0.096807696
0.4937456 -0.21333852 0.03118384 0.31636572 -0.13422146 0.10732817 0.384175 -0.15661359
-0.011130357 0.1759596 -0.16584979 -0.31715325 -0.46388835 -0.6967079 0.078660056 0.025539964
0.1526634 -0.39404288 0.026786203 0.14801306 -0.4634075 -0.34128386 -0.4218295 0.3475292
-0.43324304 0.101064466 0.15113904 -0.4172632 -0.3354172 0.6293146 0.2687546 -0.079654776
-0.011280696 -0.009650162 -0.1847586 0.18939002 -0.6856325 -0.58344084 0.15051837 0.026784109
0.35029572 0.026650649 -0.5524011 0.01947656 -0.23025648 -0.024751622 -0.62768626 0.22733656
-0.54710376 -0.6783768 0.13171075 -0.122496024 -0.59670025 -0.049693324 -0.287894 0.17738721
0.27671227 -0.48877373 -0.5967859 -0.6399769 0.13834618 -1.2987304 -0.1438373 -0.1994159
-0.08614962 -0.094396114 0.028454922 -0.31226882 0.35837442 -0.21957852 -0.4915975 -0.6040405
0.27065268 -0.69490415 -0.36544257 0.20832808 -0.59014404 -0.28560862 -0.4473644 -0.12092238
0.11434357 -0.16428035 0.033985455 0.20228472 0.38400668 -0.422942 0.024882236 0.18247585
0.07727006 -0.462811 -0.63727903 -0.5820582 -0.052821606 0.08801023 -0.34574753 0.17593847
00000000: 4fb0 ff3d a485 91bd 7037 fbbd bbbe 56bf
00000010: b2e9 a83e c3d1 d83d 4d1a 51bf 49e7 833e
00000020: 14ce 0fbd 5ca6 75be 3051 cb3e 1cd1 47bf
00000030: ffac 39bf 3377 aabc f17f 793c 24f3 c2be
00000040: 3282 dd3e 4789 883e 5542 b7be c603 87be
00000050: 0e3c d93d 3086 25be e751 5c3c 726d 42bf
00000060: 9599 943d 9a0e 2bbf d6f9 79be 059f 2bbf
00000070: c753 a7be 6cd7 213e eef0 633e 6092 eabd
00000080: 3fab 9cbd 1dde adbd a0a9 ecbe c7cc 2fbf
00000090: 90ca 0cbe 84b8 4ebf 9993 9f3e f241 febe
000000a0: 827b bfbd 5a76 0bbf 3245 e9be 4e1e 72bd
000000b0: f6b7 95be 3ac7 93be 9884 33bf 9bba 2fbf
000000c0: 03c0 2d3e 8d7d 79bd 598f 04bd 7df7 e23e
000000d0: ddd6 abbe 373a 10be 9fd4 d8be d44e 67bf
000000e0: 0935 443d 863d a3be e24d 81bd 2d89 6b3e
000000f0: 572e 1c3e a8b5 383c e3fd 97be fe01 953e
00000100: 1be1 c5bd 1922 7cbe 2e3b 7c3c f33e 333e
00000110: 26a3 a3bd 9f2c c03e f8b1 95bd f576 09bd
00000120: 6784 f03c 281b c6bd 9f3d 15be 25ef 533e
00000130: fc84 013f e5a0 98be 888a 873d 22d9 743d
00000140: 12b6 27be bfeb 58be 69d4 893e 1a72 ed3d
00000150: ce12 733e 8964 a63e 6fc8 b3be 5c73 05be
00000160: b633 bf3e 5cb8 01bf b495 27be a69b 3abe
00000170: 1608 febe 5a6a 47bf 5f63 02bf 3bfb e9be
00000180: f912 633d b3da cf3c 8e2f 6e3d 8f7e 54be
00000190: a6f6 8bbd 4ca4 15bf 0870 0bbe 6cb8 bdbc
000001a0: b179 5dbf 518f 723e 4cce 80be 7408 9e3c
000001b0: 09c0 0dbe 6277 aa3e 280c 21be 70cd be3e
000001c0: 2276 9a3e 2a42 16bf bc35 f3be f064 5b3e
000001d0: 83aa e6bc 38d4 863e d58c 0bbc 7cd9 08be
000001e0: 994f bfbd c036 90be 9e2c a7be 0dc1 06bf
000001f0: 153a 7f3e 601c c9be 37a5 8e3c 76dd 033e
00000200: 6202 9b3d 4b2c ccbe c357 1cbf 5f07 8c3e
00000210: 5f77 5cbe 4e15 32bd b696 4c3e 7ddc 42bf
00000220: 929a 46be 642b 20bd b039 3cbe 4104 563c
00000230: c3b9 d0bd 3189 5dbd 539c 4dbe a2ff b1bd
00000240: 3160 aa3d 2c96 06bd 5e97 01be 72e5 eabe
00000250: c626 0bbf 7097 a4be 2376 15bf 8792 323e
00000260: 06b8 6ebe 57d4 503d a34c 9ebd df33 bbbe
00000270: f6a0 23bf 611e 053f 4928 68be 1d43 c63d
00000280: 39cc fc3e 6a75 5abe 4175 ff3c b0fa a13e
00000290: 5a71 09be dfce db3d 96b2 c43e 505f 20be
000002a0: 1a5c 36bc c12e 343e 87d4 29be e961 a2be
000002b0: c682 edbe 735b 32bf 8618 a13d 3039 d13c
000002c0: cb53 1c3e fdbf c9be bd6e db3c bc90 173e
000002d0: bf43 edbe c2bc aebe 09fa d7be 59ef b13e
000002e0: 08d2 ddbe e3fa ce3d 31c4 1a3e 86a3 d5be
000002f0: cebb abbe c31a 213f 349a 893e 0b22 a3bd
00000300: abd2 38bc b71b 1ebc 5c31 3dbe 75ef 413e
00000310: 9d85 2fbf 615c 15bf 7d21 1a3e 596a db3c
00000320: f659 b33e 7652 da3c 296a 0dbf 4f8d 9f3c
00000330: 5bc8 6bbe eac3 cabc 0cb0 20bf eaca 683e
00000340: fe0e 0cbf 1aaa 2dbf 2fdf 063e 32df fabd
00000350: 59c1 18bf 3a8b 4bbd d866 93be fea4 353e
00000360: 3bad 8d3e 8d40 fabe f6c6 18bf 87d5 23bf
00000370: 9faa 0d3e cc3c a6bf 164a 13be af33 4cbe
00000380: 366f b0bd c052 c1bd 4c1a e93c b3e1 9fbe
00000390: da7c b73e 31d9 60be abb2 fbbe 66a2 1abf
000003a0: fd92 8a3e 3de5 31bf 4a1b bbbe f553 553e
000003b0: ae13 17bf 4b3b 92be f20c e5be 27a6 f7bd
000003c0: f62c ea3d 1c39 28be 5534 0b3d ba23 4f3e
000003d0: 869c c43e db8b d8be d5d5 cb3c f3da 3a3e
000003e0: c43f 9e3d 90f5 ecbe b824 23bf c401 15bf
000003f0: 785b 58bd b53e b43d d205 b1be 3729 343e

conv2.bias f4 [32]
0.11880064 -0.08993041 0.10365295 -0.20074145 1.2069098 -0.9335399 -0.18701339 -0.8383579
0.12758423 0.4847277 -0.19130719 0.5588635 0.32469282 -0.7721155 -0.21820371 0.5172963
-0.19791901 -0.14036211 0.38965887 0.26840916 0.68880713 0.549383 0.81562316 0.27355465
0.025060046 0.39838204 -0.12583567 -0.01580347 -0.6093381 0.9621262 0.36543757 0.52202517
00000000: c04d f33d 6f2d b8bd ff47 d43d 2b8f 4dbe
00000010: 057c 9a3f 79fc 6ebf 7080 3fbe a09e 56bf
00000020: 71a5 023e 3b2e f83e 08e6 43be ae11 0f3f
00000030: 233e a63e 5da9 45bf cb70 5fbe 886d 043f
00000040: 48ab 4abe 16bb 0fbe 5e81 c73e ed6c 893e
00000050: aa55 303f 5da4 0c3f aecc 503f 5b0f 8c3e
00000060: ba4a cd3c bbf8 cb3e 11db 00be 4776 81bc
00000070: 95fd 1bbf e74d 763f a21a bb3e 71a3 053f

fc1.weight f4 [64, 832]
-0.03435203 0.015164238 0.0070036408 -0.00031878974 -0.0087589165 -0.015996052 0.0021201607 -0.02639452
-0.038268156 0.0030675738 -0.0011811666 -0.011621184 -0.027722372 -0.019756995 0.020866025 0.014647313
-0.03264105 0.0015846975 -0.002337214 0.013276726 0.025048258 -0.004498116 -0.00938891 -0.0029624144
-0.035672948 0.018213216 -0.06695637 -0.027669448 -0.020142715 -0.076817356 -0.0995646 -0.026847187
-0.06545199 -0.06730055 -0.0023122677 -0.026889026 -0.042321622 -0.013682249 -0.003896355 0.00052960304
-0.04240564 -0.02404294 -0.045644086 -0.07135821 -0.052928686 -0.002484835 -0.06178441 -0.044333655
-0.061554257 -0.034538016 -0.03753119 -0.031731345 -0.033839226 0.00071565434 -0.016821666 0.015121136
-0.0016330108 0.02742438 -0.025721274 0.032481965 0.006267648 0.008945901 0.023417395 0.0057732128
-0.029292312 0.032427784 0.0075767674 -0.010446845 0.030063298 -0.028052451 0.01247634 0.02319815
-0.0005643368 -0.018848194 0.00814322 0.0017003156 0.01991554 -0.023458675 0.017095316 -0.00865409
0.019343171 0.02622794 -0.028913781 -0.004006192 -0.032378267 0.027600124 -0.03405954 -0.016264496
-0.029851554 0.029590208 -0.015189722 -0.01378374 0.019337125 0.012359556 -0.021261629 0.0256796
0.005844228 -0.02816904 0.014374673 -0.03100217 -0.016838983 -0.009151885 0.020366654 0.020982102
-0.0012028955 -0.015749298 -0.011893299 -0.005163521 -0.00502298 -0.0047394955 -0.022088867 0.025813773
0.011199451 -0.025891652 -0.018032627 -0.029133905 -0.00083379116 -0.005245428 -0.0060844985 0.010867991
-0.051938683 -0.054332204 -0.025563065 -0.021168804 0.019697394 -0.04742602 -0.0042124228 -0.03174111
-0.044762522 0.040018886 -0.013460698 -0.012837084 -0.070890546 -0.055066835 0.0054583554 0.015984869
-0.024339134 -0.06662925 -0.032706037 -0.04300952 -0.028619766 0.017553305 -0.047368348 -0.019580174
-0.018278942 -0.009789264 -0.08225763 -0.03539784 -0.028305342 -0.06440117 -0.035956316 0.020937096
-0.058233414 0.037328206 -0.009158903 -0.010680261 -0.03055013 -0.038002465 -0.03556394 -0.02033801
-0.054736663 -0.009689911 -0.00487321 0.008351299 0.013866088 -0.017497556 -0.0099105835 0.004172058
-0.0047121607 -0.016789857 -0.024843035 0.0022209843 -0.02354575 0.010420352 -0.029577255 0.02033588
-0.026980944 0.018536273 0.0071788346 -0.01862078 -0.0018049404 -0.018582629 0.015657114 -0.031367805
-0.017249057 0.028361289 -0.037220743 -0.0274758 0.025644025 -0.056451358 -0.0318088 -0.0064708474
0.023437312 -0.029157199 0.014362152 0.018651813 -0.008387428 -0.01448024 -0.0321311 -0.027216775
-0.00087808893 -0.03076943 0.02907313 0.024702497 -0.020204801 0.005827472 0.03270146 -0.017057521
0.022601454 0.021051332 -0.004297705 0.0027989391 -0.008085401 -0.03175338 -0.021766871 -0.021858722
-0.0019372373 -0.0024051473 0.00247926 -0.0077808173 -0.007165167 0.0052168043 0.017306706 0.008280531
-0.007279581 0.0043301242 -0.03893826 0.022136863 0.0048696916 -0.017562738 -0.013017169 0.023440324
-0.02268934 -0.033679303 -0.026836663 -0.03031441 -0.024376802 -0.016594851 -0.05263235 -0.045244817
-0.012502122 -0.020178374 -0.007705765 -0.07231378 -0.059971433 -0.020367917 -0.060436886 -0.06798438
-0.040575795 -0.07162806 -0.010755692 0.014575391 0.012490199 -0.03335109 -0.015167964 -0.010446933
00000000: b7b4 0cbd 6d73 783c cc7e e53b 3c23 a7b9
00000010: 8f81 0fbc 270a 83bc 65f2 0a3b 5239 d8bc
00000020: 12bf 1cbd 5909 493b 60d1 9aba c766 3ebc
00000030: 071a e3bc 6cd9 a1bc 3aef aa3c 49fb 6f3c
00000040: 9fb2 05bd a0b5 cf3a f22b 19bb a086 593c
00000050: 0132 cd3c ef64 93bb f1d3 19bc 1125 42bb
00000060: cc1d 12bd e233 953c 6c20 89bd 0aab e2bc
00000070: 5602 a5bc 6b52 9dbd 86e8 cbbd a2ee dbbc
00000080: b10b 86bd dfd4 89bd 6a89 17bb 6046 dcbc
00000090: 7059 2dbd 832b 60bc fd59 7fbb 0fd5 0a3a
000000a0: 89b1 2dbd b3f5 c4bc 4bf5 3abd 4124 92bd
000000b0: c0cb 58bd 9dd8 22bb a611 7dbd 3597 35bd
000000c0: 5120 7cbd bc77 0dbd 4eba 19bd baf8 01bd
000000d0: 009b 0abd c09a 3b3a 97cd 89bc a4be 773c
000000e0: c00a d6ba 18a9 e03c 6cb5 d2bc cf0b 053d
000000f0: d860 cd3b d491 123c d6d5 bf3c 382d bd3b
00000100: 6ef6 efbc ffd2 043d 8846 f83b 3e29 2bbc
00000110: 4e47 f63c 41ce e5bc 9069 4c3c 0c0a be3c
00000120: 00f0 13ba 8767 9abc 246b 053c 20dd de3a
00000130: ea25 a33c 682c c0bc 7a0b 8c3c e2c9 0dbc
00000140: 9275 9e3c fadb d63c 98dc ecbc 6046 83bb
00000150: 139f 04bd a819 e23c 0482 0bbd 1f3d 85bc
00000160: 3f8b f4bc 2a67 f23c 50de 78bc 32d5 61bc
00000170: e468 9e3c bc7f 4a3c de2c aebc 065e d23c
00000180: f080 bf3b c2c2 e6bc c083 6b3c 43f8 fdbc
00000190: e8f1 89bc caf1 15bc f8d7 a63c a8e2 ab3c
000001a0: 7aaa 9dba ac04 81bc 1ddc 42bc c132 a9bb
000001b0: cf97 a4bb c54d 9bbb b6f3 b4bc 6877 d33c
000001c0: e77d 373c bb1a d4bc 29b9 93bc 3aaa eebc
000001d0: c792 5aba d7e1 abbb 7960 c7bb a80f 323c
000001e0: a8bd 54bd 728b 5ebd a269 d1bc 336a adbc
000001f0: 6e5c a13c c941 42bd 5d08 8abb f702 02bd
00000200: e858 37bd d8ea 233d 428a 5cbc a252 52bc
00000210: 102f 91bd c38d 61bd 01dc b23b b3f2 823c
00000220: dd62 c7bc eb74 88bd c4f6 05bd c02a 30bd
00000230: 0074 eabc f3cb 8f3c 5005 42bd 9a66 a0bc
00000240: b8bd 95bc 2663 20bc b076 a8bd 53fd 10bd
00000250: 9be0 e7bc c3e4 83bd ee46 13bd 4684 ab3c
00000260: 2986 6ebd 76e5 183d 390f 16bc 43fc 2ebc
00000270: 4444 fabc 79a8 1bbd 7eab 11bd e69b a6bc
00000280: 8d33 60bd 6fc2 1ebc 73af 9fbb e3d3 083c
00000290: 972e 633c 0957 8fbc 0060 22bc c2b5 883b
000002a0: 7868 9abb e28a 89bc 9f83 cbbc ef8d 113b
000002b0: 04e3 c0bc 20ba 2a3c 004c f2bc 6e97 a63c
000002c0: 2407 ddbc 62d9 973c 6e3c eb3b 9b8a 98bc
000002d0: c093 ecba 993a 98bc 5943 803c 877b 00bd
000002e0: e54d 8dbc ef55 e83c c774 18bd ee14 e1bc
000002f0: 6b13 d23c 8a39 67bd f249 02bd 6709 d4bb
00000300: 9bff bf3c 14db eebc 3b4f 6b3c b0cb 983c
00000310: 6c6b 09bc 873e 6dbc e69b 03bd b7f5 debc
00000320: 8d2f 66ba 2c10 fcbc c62a ee3c e45c ca3c
00000330: 8a84 a5bc 61f4 be3b f7f1 053d 37bc 8bbc
00000340: af26 b93c d873 ac3c c3d3 8cbb 686e 373b
00000350: a178 04bc d50f 02bd 7050 b2bc 1011 b3bc
00000360: e6ea fdba ad9f 1dbb 157b 223b 3af6 febb
00000370: c7c9 eabb baf1 aa3b cbc6 8d3c 10ab 073c
00000380: 8d89 eebb b7e3 8d3b ba7d 1fbd 5e58 b53c
00000390: ef91 9f3b bbdf 8fbc f745 55bc ec05 c03c
000003a0: ffde b9bc 4ff3 09bd 90d8 dbbc ed55 f8bc
000003b0: dcb1 c7bc edf1 87bc 0595 57bd a152 39bd
000003c0: b3d5 4cbc 1e4d a5bc a480 fcbb 3f19 94bd
000003d0: 9ba4 75bd 9eda a6bc ab8c 77bd 653b 8bbd
000003e0: ce32 26bd bbb1 92bd a438 30bc 9fcd 6e3c
000003f0: b1a3 4c3c 279b 08bd 0d83 78bc 9d29 2bbc

fc1.bias f4 [64]
-0.087802924 -0.3006789 -0.08880087 -0.26165208 -0.47371286 -0.044741016 -0.49991485 -0.065172255
0.14037378 -0.44741586 -0.055951595 -0.18921001 -0.33131385 0.4789522 0.42388287 0.54351693
0.09517186 -0.07185751 -0.09317412 0.10059065 -0.06671654 -0.15317559 -0.13050677 -0.41899693
0.15356144 -0.094588935 -0.33740622 -0.17719556 -0.5032622 -0.300497 0.56926066 -0.30378255
0.2491083 -0.11029942 0.01450569 0.04456959 -0.26331377 -0.4075071 -0.3180102 -0.21417874
-0.5394613 -0.338676 -0.39743426 -0.33625826 -0.20956425 0.3044605 0.08087855 -0.24247952
0.04170681 -0.23423609 -0.40188655 -0.5575521 -0.47536874 0.6538231 -0.1186695 -0.08350653
-0.010585638 -0.27113712 -0.07449734 -0.2786863 -0.033368547 -0.31682476 -0.5283825 -0.51721877
00000000: 05d2 b3bd 96f2 99be 3bdd b5bd 43f7 85be
00000010: 7e8a f2be 5b42 37bd d7f4 ffbe 0879 85bd
00000020: 25be 0f3e b113 e5be 802d 65bd 45c0 41be
00000030: f8a1 a9be 3939 f53e 2d07 d93e ed23 0b3f
00000040: 77e9 c23d 082a 93bd 13d2 bebd 7902 ce3d
00000050: aea2 88bd 10da 1cbe 91a3 05be c486 d6be
00000060: 363f 1d3e d8b7 c1bd 82c0 acbe c172 35be
00000070: cbd5 00bf beda 99be 11bb 113f 6389 9bbe
00000080: 3f16 7f3e aae4 e1bd 46a9 6d3c 9a8e 363d
00000090: 10d1 86be c5a4 d0be 3cd2 a2be ac51 5bbe
000000a0: 231a 0abf f166 adbe 817c cbbe 0b2a acbe
000000b0: 0398 56be 3fe2 9b3e a7a3 a53d 8d4c 78be
000000c0: c3d4 2a3d 96db 6fbe 13c4 cdbe bcbb 0ebf
000000d0: 8863 f3be f360 273f ff08 f3bd 7905 abbd
000000e0: 626f 2dbc 7cd2 8abe 1092 98bd f9af 8ebe
000000f0: 75ad 08bd db36 a2be 1344 07bf 7368 04bf

fc2.weight f4 [3, 64]
-0.027288366 -0.8701332 0.076254085 1.1736315 1.1104015 -0.0019439558 0.8078615 -0.025841735
-0.29675466 1.1068299 0.055072665 0.7806183 1.0597578 0.06409565 -0.041016042 0.32639953
0.61744267 -0.008679271 0.035980053 0.20610763 -0.022346385 -0.59543484 -0.0052931947 -0.7805796
0.3577578 0.09606599 -0.7911417 -0.68837744 -0.5689027 -0.125824 -0.008274306 0.5764138
0.09713617 -0.14000018 -0.4442865 -0.163417 -0.6082018 0.66602874 0.56960076 -1.1177691
-1.0574328 -1.0442824 0.7353809 0.9104731 0.38831913 -0.2722978 -0.8031471 1.1632559
-0.27992368 0.20820707 0.8416502 -0.8261572 -1.3179977 0.1974171 0.053506456 -0.016132515
0.917889 0.65209454 -0.011677788 0.68813086 0.031691097 0.6975134 -0.8793186 -0.7596334
0.024003645 -2.4870777 0.011458291 -0.8944337 -3.5628593 -0.044821512 -2.3981338 0.03133065
-3.002489 -2.6484416 -0.03917795 0.19835894 -2.115136 -1.716687 -2.4438732 -1.6049569
-1.1182488 0.0795311 0.021750905 -4.3349886 0.06946805 -0.62606853 -0.027827451 -1.3127642
-4.3372097 -0.11790117 -2.5250764 -1.0711278 -0.7263489 -0.14519373 -1.9747863 -0.8685439
-1.9052033 -0.089887165 -2.501253 -1.8018363 0.82122886 -4.319034 -1.0807356 -2.8332467
-2.8537025 -1.5232261 -2.7605321 -0.8398737 -1.8584042 -1.1202853 -2.1568568 -1.4244639
-2.4714537 -3.604907 -1.0269283 -0.9157424 -2.6698754 -2.4425335 0.028696174 0.024183862
-1.1655039 -5.0149064 0.0077270563 0.15151028 0.11132498 -3.178454 -3.54815 -1.5016485
-0.034364663 0.9633257 0.052181836 -1.2502384 -1.1450872 -0.08467577 -0.7903287 0.002775052
0.36851618 -1.2317276 0.027521089 -0.82254815 -1.0776682 0.18015139 0.195027 -0.06752934
-0.5249395 -0.018706653 0.02929179 -0.1625498 0.018487738 0.45422575 0.040432896 0.76667553
-0.21744558 0.08657931 0.6631689 0.8237432 0.5347851 0.032505374 0.17121677 -0.5312898
0.12196763 -0.09235376 0.562883 0.21548063 0.51611805 -0.74126405 -0.68573934 1.041873
1.1613953 1.0564849 -0.6526768 -1.1120976 -0.28165308 0.38587517 0.93050706 -1.1474589
0.53230846 -0.28263468 -0.99624103 0.75364655 1.3550737 -0.06042109 0.10567113 -0.02783677
-0.81049055 -0.70374703 0.031228125 -0.9405991 -0.054438338 -0.75572795 0.96621907 0.759663
00000000: da8b dfbc 0dc1 5ebf 1a2b 9c3d 8f39 963f
00000010: a321 8e3f 55cc feba 03d0 4e3f 0cb2 d3bc
00000020: 3af0 97be 9aac 8d3f e093 613d 9ad6 473f
00000030: 25a6 873f 9544 833d 7000 28bd d71d a73e
00000040: b910 1e3f 8033 0ebc d25f 133d e10d 533e
00000050: c40f b7bc 6b6e 18bf 8972 adbb 11d4 47bf
00000060: 082c b73e 3fbe c43d 4388 4abf 8139 30bf
00000070: 9ba3 11bf 02d8 00be f490 07bc db8f 133f
00000080: 54ef c63d 355c 0fbe 8579 e3be c956 27be
00000090: 1db3 1bbf dc80 2a3f 5bd1 113f 0f13 8fbf
000000a0: f559 87bf 0cab 85bf ec41 3c3f c414 693f
000000b0: c4d1 c63e 9e6a 8bbe 0c9b 4dbf 92e5 943f
000000c0: 2852 8fbe 3c34 553e 6376 573f 0a7f 53bf
000000d0: 26b4 a8bf b527 4a3e 9629 5b3d 5628 84bc
000000e0: c6fa 6a3f abef 263f 3154 3fbc 5829 303f
000000f0: 86ce 013d 3d90 323f 061b 61bf 5677 42bf
00000100: 4ba3 c43c 482c 1fc0 8ebb 3b3c 9bf9 64bf
00000110: e305 64c0 c396 37bd 067b 19c0 9154 003d
00000120: c828 40c0 1180 29c0 0f79 20bd 9b1e 4b3e
00000130: 635e 07c0 66bc dbbf 6b68 1cc0 3a6f cdbf
00000140: c722 8fbf 34e1 a23d f42e b23c 3ab8 8ac0
00000150: 4445 8e3d 0746 20bf 65f6 e3bc a808 a8bf
00000160: 6cca 8ac0 2b76 f1bd da9a 21c0 b71a 89bf
00000170: 00f2 39bf aaad 14be ccc5 fcbf e558 5ebf
00000180: b4dd f3bf c316 b8bd 8714 20c0 92a2 e6bf
00000190: 0e3c 523f 8735 8ac0 8b55 8abf ea53 35c0
000001a0: 10a3 36c0 13f9 c2bf 8fac 30c0 f601 57bf
000001b0: 30e0 edbf 8265 8fbf f109 0ac0 d554 b6bf
000001c0: 4c2c 1ec0 ccb6 66c0 6372 83bf 186e 6abf
000001d0: 3ddf 2ac0 7852 1cc0 3d14 eb3c 3c1d c63c
000001e0: 3b2f 95bf 1d7a a0c0 3f33 fd3b 8325 1b3e
000001f0: 5afe e33d ca6b 4bc0 e414 63c0 0536 c0bf
00000200: f6c1 0cbd 839c 763f 9fbc 553d d007 a0bf
00000210: 3892 92bf 7d6a adbd fb52 4abf a6dd 353b
00000220: 27ae bc3e 40a9 9dbf e873 e13c 8492 52bf
00000230: 08f1 89bf 9b79 383e 28b5 473e d34c 8abd
00000240: 6f62 06bf b23e 99bc 56f5 ef3c 7473 26be
00000250: 9973 973c 4790 e83e f79c 253d d944 443f
00000260: 0eaa 5ebe 7e50 b13d 70c5 293f d6e0 523f
00000270: ade7 083f 5b24 053d 7353 2f3e 9c02 08bf
00000280: 2aca f93d f823 bdbd 1a19 103f f4a6 5c3e
00000290: 5020 043f 7bc3 3dbf 9d8c 2fbf 185c 853f
000002a0: 9aa8 943f e63a 873f d415 27bf 3759 8ebf
000002b0: d534 90be 6e91 c53e b635 6e3f efdf 92bf
000002c0: 5e45 083f 7eb5 90be a709 7fbf fbee 403f
000002d0: 0e73 ad3f 1b7c 77bd 1b6a d83d f009 e4bc
000002e0: 4f7c 4fbf c428 34bf 20d2 ff3c 1acb 70bf
000002f0: bcfa 5ebd 6377 41bf 225a 773f 4679 423f

fc2.bias f4 [3]
0.15330407 -0.36893478 0.0074624354
00000000: befb 1c3e 05e5 bcbe 7287 f43b
